android/collect_data/app/src/main/ml/fft_win5_lab50_50ep_acc96.tflite (tflite, 61516 bytes, 6 tensors)

arith.constant f4 [6, 20]
0	0x3c481387	0.012211687
1	0x3ed17a8e	0.40913814
2	0xbea12332	-0.31472164
3	0xbfb0582f	-1.3776911
4	0x3edbb5e7	0.42912218
5	0xbd44a2c4	-0.048006788
6	0x3e6bd361	0.23029853
7	0x3ef28724	0.4736873
8	0xbe956b8d	-0.29183617
9	0x3df9b472	0.1219262
10	0x3f1357c8	0.5755582
11	0xbe4cbab9	-0.19993104
12	0xbec712b6	-0.38881463
13	0xbf121d94	-0.5707638
14	0x3ed63fe9	0.41845635
15	0x3f4a2ef8	0.7897792
16	0xbf79ec09	-0.97625786
17	0x3f4af694	0.792825
18	0x3e43ac30	0.19108653
19	0xbda963d7	-0.08270996
20	0x3e378328	0.17921126
21	0xbf4f4d07	-0.8097691
22	0xbdedc2d7	-0.116094284
23	0x3ed05dda	0.40696603
24	0xbe42ff92	-0.19042805
25	0xbf510b7b	-0.8165814
26	0xbdfb4ff6	-0.12271111
27	0x3f119aff	0.5687713
28	0x3ef2f1c2	0.47450072
29	0x3eeb85df	0.46000573
30	0x3d7ed2c0	0.062212706
31	0xbe892008	-0.2678225
32	0xbf39915c	-0.72487426
33	0x3ba7bce9	0.0051189554
34	0xbf3499d4	-0.70547223
35	0xbf4b1271	-0.79325014
36	0xbe2c0480	-0.16798592
37	0xbe751fbc	-0.23937887
38	0xbed1e39f	-0.40993974
39	0x3f0b545d	0.54425603
40	0x3ee146a3	0.43999204
41	0x3f32f780	0.69908905
42	0xbe8556ba	-0.2604273
43	0x3f14e9fb	0.58169526
44	0xbe06bde5	-0.13158377
45	0x3eb47b82	0.3525048
46	0xbf32388a	-0.6961752
47	0xbea95cde	-0.33078665
48	0xbecd02ab	-0.40041098
49	0xbee7d98a	-0.45283157
50	0xbed11ad3	-0.40840778
51	0x3e3da9a2	0.18521741
52	0x3e8ca6cb	0.27471003
53	0xbd8dcea4	-0.06924179
54	0x3ef2ad9b	0.47398075
55	0x3f1e3b60	0.6180935
56	0x3f30b8de	0.69032085
57	0xbf23594b	-0.63808125
58	0xbf3c21ab	-0.73488873
59	0x3c58cf8c	0.013233077
60	0x3e89e9b6	0.2693612
61	0xbf811b88	-1.0086527
62	0x3d48fecd	0.049071122
63	0xbf435822	-0.76306355
64	0xbebb47c6	-0.36578196
65	0xbf546719	-0.82969815
66	0xbf4ce02b	-0.80029553
67	0xbec5c21f	-0.38624665
68	0x3ebc45de	0.36772054
69	0x3ebe7406	0.37197894
70	0xbec12775	-0.37725416
71	0x3e2f752e	0.17134544
72	0xbcd7f342	-0.026361112
73	0xbf1c217a	-0.6098858
74	0xbea70d68	-0.32627416
75	0x3f2ba381	0.6704636
76	0x3de892d0	0.11356127
77	0xbf217c91	-0.630807
78	0x3ed7029a	0.41994172
79	0x3e7be531	0.24599148
80	0x3ecd9814	0.4015509
81	0xbf055ec5	-0.5209773
82	0xbf20d5ab	-0.6282603
83	0x3ecef8b2	0.40424114
84	0x3eb6c4be	0.35696977
85	0x3f0c2f98	0.5476012
86	0x3f19831b	0.59965676
87	0xbf18140c	-0.5940559
88	0x3e05272f	0.13003229
89	0x3ec97210	0.39344835
90	0xbdb7265a	-0.08942862
91	0xbf13efc8	-0.5778775
92	0xbeab987d	-0.33514777
93	0xbf0b7604	-0.5447695
94	0xbd1900c2	-0.03735424
95	0xbf64afe7	-0.89330906
96	0x3ec1d441	0.3785725
97	0x3f18ee13	0.5973827
98	0xbed2da51	-0.41182187
99	0x3ec71ddf	0.38889977
100	0xbe977c7d	-0.29587165
101	0xbee593ec	-0.44839418
102	0x3d8fef04	0.070280105
103	0xbf21b2da	-0.6316353
104	0x3f241230	0.6409025
105	0x3f31a549	0.6939283
106	0x3de09f2f	0.10967862
107	0xbe7a6cd7	-0.24455582
108	0xbf0392ab	-0.5139567
109	0xbe19d312	-0.15021923
110	0xbf4a4dd1	-0.7902499
111	0xbd0ef396	-0.03490027
112	0x3d51d3b3	0.051227283
113	0x3e677ffd	0.22607417
114	0xbe8e375b	-0.27776608
115	0xbf16e5e5	-0.5894454
116	0xbe1b7914	-0.15182906
117	0xbeef6c67	-0.46762392
118	0x3eab08e5	0.33405223
119	0xbe69ea58	-0.22843301

arith.constant1 f4 [20, 100]
0	0x3d4b161e	0.04958164
1	0x3e523471	0.20527817
2	0x3e0507ec	0.12991303
3	0xbd864419	-0.06555957
4	0xbd769920	-0.060204625
5	0xbe45c61d	-0.19313855
6	0xbdceeca0	-0.101037264
7	0x3dcfb191	0.1014129
8	0x3c7be12f	0.015373512
9	0xbddaf245	-0.106907405
10	0x3cb35e23	0.021895474
11	0xbdd0fbe0	-0.10204291
12	0x3e17f159	0.1483816
13	0x3dda1836	0.10649149
14	0xbdd9933a	-0.10623784
15	0xbda25437	-0.07926219
16	0xbc80f741	-0.0157429
17	0xbe044373	-0.12916355
18	0x3e489e97	0.19591747
19	0xbe4bd636	-0.19905934
20	0xbd119f19	-0.035552118
21	0x3d62e804	0.05539705
22	0x3d6b7ed3	0.057493996
23	0xbe016d9f	-0.12639473
24	0xbe1160ce	-0.14197084
25	0xbe09e4c2	-0.1346617
26	0xbe100686	-0.14064988
27	0xbd9c1610	-0.076213956
28	0xbe1f88e4	-0.15579563
29	0x3e5005a6	0.20314655
30	0xbe14e597	-0.14540707
31	0xbe3aa182	-0.18225673
32	0xbd81b909	-0.06334121
33	0x3e1e64ae	0.15468094
34	0xbe35f985	-0.17770965
35	0xbdc87bfe	-0.09789275
36	0xbd248038	-0.04016134
37	0xbe3e9907	-0.18613063
38	0x3d9ce816	0.076614544
39	0xbd2a3eab	-0.04156367
40	0xbdebd0dd	-0.11514447
41	0x3e044328	0.12916243
42	0xbe2021b0	-0.15637851
43	0x3dcba34d	0.099432565
44	0xbe3a061f	-0.18166398
45	0x3d255171	0.04036087
46	0x3b73a22e	0.0037175524
47	0x3e1ab2f6	0.1510733
48	0xb87ae3d2	-5.981682e-05
49	0xbe3d5bb8	-0.18492019
50	0x3cdd4c4e	0.027013924
51	0xbd9fb2f4	-0.077978045
52	0xbc5ba2f5	-0.013405551
53	0x3dab8e74	0.0837678
54	0xbdde7df1	-0.10863865
55	0x3e1382d9	0.14405383
56	0x3d04260c	0.032262847
57	0xbe3ec276	-0.18628868
58	0x3d7630a1	0.06010497
59	0x3db78f66	0.08962898
60	0xbe001c8e	-0.12510893
61	0xbe4efedb	-0.20214407
62	0xbd22e03e	-0.039764635
63	0x3e31d854	0.17367679
64	0x3e26a7f5	0.16275008
65	0x3c834a0f	0.016026525
66	0x3d80782f	0.06272923
67	0xbc99c198	-0.01876907
68	0x3e264d8f	0.16240524
69	0xbd9d7b9b	-0.076895915
70	0x3d9b4a5e	0.07582544
71	0x3e4be6f8	0.19912326
72	0x3dae9e72	0.08526315
73	0x3e20a2be	0.15687081
74	0xbe19732f	-0.14985345
75	0x3c6502ad	0.013977689
76	0xbd5652ab	-0.052324932
77	0x3e0aca98	0.13553846
78	0xbe0369d5	-0.1283334
79	0x3dbbb550	0.09165442
80	0x3dc33a2d	0.095325805
81	0xbd1df910	-0.038567603
82	0xbde0e6f3	-0.1098155
83	0x3e0d80fe	0.13818738
84	0x3da0c2e6	0.07849674
85	0xbe2166df	-0.15761898
86	0x3d902c0e	0.07039653
87	0xbddc7840	-0.10765123
88	0xbdb7f1c8	-0.08981663
89	0xbd96e39c	-0.07367632
90	0xbc8602fb	-0.016358843
91	0x3914a7cf	0.00014176893
92	0xbe6a4517	-0.22877918
93	0x3d64280e	0.05570226
94	0xb9b6cab4	-0.0003486477
95	0xbdaf796d	-0.08568082
96	0x3dc38bc2	0.09548141
97	0x3e21facf	0.15818332
98	0x3df6326e	0.120213374
99	0x3de80511	0.11329091
100	0xbe97f246	-0.29677027
101	0x3ef2cee0	0.47423458
102	0xbd661825	-0.05617537
103	0xbc8f8060	-0.017517269
104	0x3dff0234	0.12451592
105	0x3eefdb9e	0.46847242
106	0x3ed08367	0.40725252
107	0x3eb5119a	0.3536499
108	0xbf0f38f2	-0.55946267
109	0x3e9220e3	0.28540716
110	0x3dd5c565	0.10438041
111	0xbeb9a77b	-0.3626059
112	0x3e16d5a0	0.14729929
113	0xbed3a015	-0.4133307
114	0xbe34e928	-0.17667067
115	0x3eadffac	0.33984125
116	0x3e4040a2	0.18774655
117	0xbdfed667	-0.12443238
118	0xbdd67379	-0.104712434
119	0x3d8a9ddc	0.067683905
120	0xbf01e849	-0.50745064
121	0xbd2fa653	-0.04288323
122	0x3e0f68fe	0.14004895
123	0x3d98cd77	0.07461064
124	0x3dc73b6e	0.09728132
125	0x3e3e5e00	0.18590546
126	0x3f0fc7f3	0.56164473
127	0xbdee0101	-0.11621285
128	0xbe18c0c2	-0.14917281
129	0x3e8bad65	0.27280727
130	0x3e3e5a3c	0.18589109
131	0x3b963e27	0.004585046
132	0xbe4fef11	-0.2030604
133	0x3e1ee1af	0.15515779
134	0x3e29a226	0.16565761
135	0x3ec933ed	0.3929743
136	0xbe0f0433	-0.13966446
137	0x3d9012d4	0.07034841
138	0x3e50620f	0.20349906
139	0xbd339244	-0.04384066
140	0xbe993e6c	-0.29930437
141	0xbeb58090	-0.35449648
142	0x3ece1147	0.40247557
143	0xbe9f7ff5	-0.3115231
144	0xbef689ed	-0.48152104
145	0xbef505aa	-0.47855884
146	0xbe60f205	-0.21967323
147	0xbc8a324b	-0.016869685
148	0xbe466dba	-0.19377795
149	0x3e83b219	0.25721815
150	0xbe5fcacd	-0.21854706
151	0xbdc1fe19	-0.094722934
152	0xbde30490	-0.110848546
153	0xbe56a5e9	-0.20961727
154	0xbe92fe18	-0.28709483
155	0xbee7cf69	-0.4527543
156	0x3f52aadb	0.82291955
157	0xbdaf4619	-0.08558292
158	0x3e717601	0.23580171
159	0x3e32a72a	0.1744658
160	0x3ec11669	0.3771241
161	0xbe6c09d5	-0.23050626
162	0x3e1f98a8	0.15585577
163	0x3ec4c760	0.3843336
164	0x3d98d101	0.07461739
165	0xbebdb620	-0.37053013
166	0xbe6deda1	-0.2323518
167	0x3f02b4bf	0.51057047
168	0xbe37763f	-0.17916201
169	0x3dc39407	0.09549718
170	0xbc4a754c	-0.012357067
171	0x3dd97b1a	0.10619183
172	0xbec6c8c6	-0.38825053
173	0xbec9ed6b	-0.39438948
174	0x3d6f7341	0.058459524
175	0x3ec68965	0.387767
176	0x3df0848f	0.117440335
177	0x3ed81d74	0.4220997
178	0x3e830377	0.2558858
179	0xbc98f19f	-0.018669901
180	0xbe11a3c0	-0.14222622
181	0x3d2412e7	0.04005709
182	0x3dafc68c	0.08582792
183	0xbe09a4fe	-0.13441846
184	0xbee17b2e	-0.4403929
185	0xbea234d4	-0.3168093
186	0x3e23f1c0	0.16010189
187	0x3ec33720	0.38127995
188	0x3f4bae79	0.795631
189	0xbe2889fe	-0.1645889
190	0x3ec89cf0	0.39182234
191	0x3ee00193	0.437512
192	0x3e711e37	0.23546682
193	0xbe5c9c55	-0.21544011
194	0x3e67451e	0.2258496
195	0x3c84f301	0.016229155
196	0xbe51a2c4	-0.20472246
197	0x3e0b01b1	0.13574864
198	0x3d4a0af4	0.049326852
199	0xbb8f733a	-0.0043777497
200	0x3e94d16a	0.2906602
201	0xbec5d517	-0.38639137
202	0x3e96b720	0.29436588
203	0x3d8b2b1c	0.06795332
204	0x3dbc64cc	0.09198913
205	0x3e829482	0.25503927
206	0x3d954dfc	0.07290265
207	0x3e81cfd7	0.25353882
208	0x3d1f6051	0.038910214
209	0x3e516d5a	0.2045187
210	0x3de01a32	0.10942496
211	0x3d639945	0.05556609
212	0x3e9ea111	0.3098226
213	0x3e3c0344	0.1836062
214	0x3db5849c	0.08863184
215	0x3e0ae649	0.1356441
216	0x3e021a5d	0.1270537
217	0xbd0ce6a0	-0.03439963
218	0xbe47a1bd	-0.19495292
219	0xbd3f0b07	-0.046641376
220	0x3dc499a1	0.09599615
221	0x3e783885	0.2424031
222	0xbdb4f00f	-0.0883485
223	0xbcc601f1	-0.024170848
224	0xbd23cc88	-0.039989978
225	0xbd1115bf	-0.03542113
226	0xbc4bb187	-0.012432463
227	0xbd16875c	-0.036750183
228	0x3c42eaca	0.011896798
229	0x3e095f51	0.13415267
230	0x3e76992c	0.24081868
231	0x3d6c4a55	0.057688076
232	0xbdb19290	-0.08670533
233	0xbd54cdbd	-0.05195402
234	0xbcd01051	-0.025398405
235	0xbd6b3291	-0.05742127
236	0x3ed120c9	0.40845326
237	0xbe25a59e	-0.16176459
238	0x3e085040	0.13311863
239	0x3e1907be	0.1494436
240	0x3d80e718	0.06294078
241	0xbdd5a117	-0.10431116
242	0x3dcbb0ef	0.09945857
243	0x3e92b8e2	0.2865668
244	0xbde10f7b	-0.10989281
245	0xbea89f90	-0.32934237
246	0x3e959f69	0.29223183
247	0x3d5178ae	0.05114048
248	0x3e46349d	0.19356008
249	0x3e9039a0	0.28168964
250	0x3d68027d	0.056642998
251	0x3e8d5650	0.27604914
252	0x3e834799	0.25640562
253	0x3eb60847	0.3555319
254	0x3e975f03	0.29564676
255	0x3e82310e	0.2542805

arith.constant2 f4 [6]
0	0xbc81f94e	-0.015865948
1	0xbcfe8f14	-0.031074084
2	0x3df48ce0	0.11940932
3	0xbe1c91a1	-0.15289928
4	0xbc95ace7	-0.018270923
5	0x3ce5273a	0.027972806

arith.constant3 f4 [20]
0	0xbc9615e5	-0.018320987
1	0x3e3680e8	0.17822611
2	0xbdd06335	-0.10175172
3	0x3e573a7d	0.21018405
4	0x3d8e2d78	0.06942266
5	0x3e77566a	0.24154058
6	0x3db2cadb	0.08730098
7	0x3cb01d55	0.021498362
8	0xbc9ddfcc	-0.019271754
9	0x3d2d59c9	0.042321954
10	0x3d7a9fcc	0.06118755
11	0xbca59fe0	-0.020217836
12	0x3ddd7027	0.10812407
13	0x3dc3f60a	0.095684126
14	0x3dbf7a6e	0.093495235
15	0x3d8e9663	0.06962278
16	0x3e3bd8bc	0.18344396
17	0x3d8cde6b	0.0687836
18	0xbc29ce6c	-0.010364156
19	0x3db2bd93	0.08727565

sequential_27_1/dense_57_1/BiasAdd/ReadVariableOp f4 [100]
0	0xbe08ecc5	-0.1337157
1	0x3e925d48	0.28586793
2	0xbe4450b3	-0.1917141
3	0x3d20bde2	0.039243586
4	0xbba3e7de	-0.005002006
5	0x3d9e6b46	0.077353045
6	0x3e5d925d	0.21637864
7	0x3d094872	0.033516355
8	0xbe3bf592	-0.18355396
9	0x3eae4541	0.34037212
10	0xbc34594d	-0.011007619
11	0x3cfc14d7	0.030771656
12	0xbe2368e0	-0.15957975
13	0xbe09aa50	-0.13443875
14	0xbc453df7	-0.012038699
15	0x3d91183b	0.070847
16	0xbcf5ba1c	-0.02999597
17	0x00000000	0.0
18	0x3dfa9d38	0.12237018
19	0xbc39340c	-0.011303913
20	0xbaa67425	-0.0012699409
21	0x3deb83b3	0.11499729
22	0x3e9f6b42	0.3113652
23	0x3e947fb0	0.29003668
24	0x3e14904c	0.1450817
25	0x3e1e7dfb	0.15477745
26	0x3ee071d3	0.4383684
27	0x3d3374c2	0.04381252
28	0xbd607e4a	-0.05480794
29	0xbe0c757f	-0.13716696
30	0xbcda838e	-0.026674058
31	0xbe524242	-0.20533088
32	0xbe1e4f95	-0.15460046
33	0xbcacf22c	-0.02111157
34	0x3ec0d733	0.37664184
35	0x3e5e4de4	0.217094
36	0xbc5d7d93	-0.013518709
37	0xbba7ddbb	-0.005122868
38	0xbe31c657	-0.17360817
39	0xbbc49136	-0.005998756
40	0x3ceac93a	0.028660405
41	0xbd4d9062	-0.050186522
42	0xbe06734d	-0.13129921
43	0xbe184aa3	-0.14872222
44	0x3d70879b	0.058723073
45	0x3d2cd63d	0.0421965
46	0xbe54289e	-0.20718619
47	0xbe807d7f	-0.25095746
48	0xbc49e2b5	-0.012322118
49	0x3e7945e4	0.24343067
50	0xbb57e9cd	-0.0032945753
51	0xbdc5d46d	-0.096596576
52	0xbe88b768	-0.26702428
53	0x3d525d31	0.051358406
54	0xbceb641a	-0.028734256
55	0x3d494a8f	0.04914337
56	0x3de73aec	0.11290535
57	0x3e28ff7e	0.16503713
58	0x3e77553c	0.24153608
59	0x3e5063e7	0.2035061
60	0x3e78aaba	0.24283877
61	0xbe282503	-0.16420369
62	0xbe2c4b3a	-0.16825572
63	0xbcbf49d6	-0.023350637
64	0xbd9efb23	-0.07762744
65	0xbcd3a388	-0.025834814
66	0x3d136c1b	0.03599177
67	0x3e6fb060	0.23407125
68	0xbe443207	-0.19159709
69	0xbe503dc4	-0.20336062
70	0xbbd7de5d	-0.006587787
71	0xbb886f5f	-0.004163667
72	0xbcd8651c	-0.0264154
73	0xbe0d7cd2	-0.13817146
74	0xbe11cee9	-0.14239086
75	0x3ea17d79	0.3154104
76	0x3df38612	0.11890806
77	0x3e764d51	0.24052931
78	0x3e92a254	0.28639472
79	0x3dd6d3ac	0.10489592
80	0x3c690be0	0.014224023
81	0xbc81d988	-0.015850797
82	0x00000000	0.0
83	0xbde9cc99	-0.11415977
84	0x3c4d7069	0.012539008
85	0xbe646e99	-0.22307815
86	0x3ea6c7d4	0.32574332
87	0x3e084ef0	0.13311362
88	0x3ead224b	0.33815226
89	0xbb5dee5a	-0.0033863992
90	0x3e62cbb0	0.22148013
91	0x3e9b2796	0.3030364
92	0x3e04e9a1	0.12979747
93	0x3d32446d	0.043522287
94	0x3e4b0ed6	0.19829878
95	0xbe426778	-0.18984783
96	0x3e6bea52	0.23038605
97	0xbc659bbc	-0.014014181
98	0x3e9aa07f	0.30200574
99	0x3e80faed	0.2519144

sequential_27_1/dense_57_1/MatMul f4 [100, 126]
0	0xbd41c8e8	-0.04731074
1	0xbd5a75fe	-0.053335182
2	0x3d02ab9b	0.031901937
3	0x3d538c51	0.051647488
4	0x3e0e62aa	0.13904825
5	0xbcc71df6	-0.024306279
6	0xbd26a077	-0.040680375
7	0xbd591ed3	-0.053007912
8	0xbb9e91c5	-0.0048391544
9	0x3d99f705	0.07517818
10	0x3d866ce7	0.0656374
11	0x3ea29196	0.31751698
12	0x3d004178	0.031312436
13	0x3e8e43a2	0.27785975
14	0x3e25bf7b	0.16186325
15	0x3df68e1d	0.12038825
16	0x3e868907	0.2627642
17	0xbd514173	-0.051087808
18	0xbced7189	-0.028984802
19	0x3d5f7e88	0.05456403
20	0xbe10fcd0	-0.1415894
21	0x3db0cf84	0.086333305
22	0xbdf3f7db	-0.11912509
23	0xbd9b8bf6	-0.07595055
24	0x3de4e495	0.11176411
25	0x3d96d835	0.07365457
26	0xbbc7d4fe	-0.0060983887
27	0xbe3d2b59	-0.18473567
28	0x3e04bdc6	0.12963018
29	0xbda10556	-0.07862346
30	0xbd0ee3be	-0.03488516
31	0xbe05b3ac	-0.1305682
32	0xbcfb830f	-0.030702142
33	0x3d825b98	0.06365126
34	0x3e16eb4a	0.14738193
35	0x3e696cbe	0.22795388
36	0x3de0eec8	0.10983044
37	0x3de84ed0	0.11343157
38	0x3e0414bb	0.12898533
39	0x3c94a399	0.018144416
40	0x3c7d1b49	0.0154484
41	0x3dab0c5a	0.08351965
42	0x3becaebf	0.00722298
43	0x3e049dcc	0.1295082
44	0xbdbf3ed1	-0.09338153
45	0x3c6e6226	0.014549768
46	0x3ddab5fa	0.106792405
47	0x3e77eedd	0.24212213
48	0x3e817843	0.25287065
49	0x3e52dd8a	0.20592323
50	0x3dd607df	0.1045072
51	0x3dc58ad1	0.09645618
52	0x3e45b54f	0.19307445
53	0x3c984b14	0.018590488
54	0x3e6f413d	0.2336473
55	0x3d150ae7	0.03638735
56	0x3e02598a	0.12729469
57	0x3c965127	0.018349243
58	0x3d8d5d13	0.06902518
59	0x3e1395e2	0.14412645
60	0x3dbea299	0.09308357
61	0x3e62a27f	0.221323
62	0x3e078d36	0.13237461
63	0xbda8eb7a	-0.082480386
64	0x3c98103f	0.018562434
65	0xbda42adf	-0.080159895
66	0xbd246e3c	-0.04014419
67	0x3e192943	0.14957146
68	0xbd6198eb	-0.055077475
69	0x3e1a194f	0.15048717
70	0x3c4ca7cf	0.012491181
71	0xbd5012e8	-0.05079928
72	0x3e084aa3	0.13309722
73	0xbd91c01c	-0.0711672
74	0x3df835c0	0.12119627
75	0xbdbdeab7	-0.09273284
76	0xbcbe5c58	-0.023237392
77	0xbe22ac06	-0.15885934
78	0xbe095d02	-0.13414386
79	0x3bc42dc0	0.005986899
80	0xbd07ef04	-0.033186927
81	0x3d746ffb	0.059677105
82	0x3da7f6b5	0.082013525
83	0x3e0da846	0.13833722
84	0x3d69f331	0.05711669
85	0x3e02ad10	0.1276133
86	0xbd40fc1e	-0.047115438
87	0x3e7b4627	0.2453848
88	0xbd5f627a	-0.054537274
89	0x3cd70c84	0.026251085
90	0x3c899f21	0.016799511
91	0x3d68fb8a	0.05688051
92	0xbe0f16b7	-0.13973509
93	0x3de8061b	0.113292895
94	0x3e476ed9	0.19475879
95	0xbca2b124	-0.019859858
96	0x3d0cf929	0.034417305
97	0xbdb14948	-0.086565554
98	0x3e049e89	0.12951101
99	0x3dbbd1c0	0.09170866
100	0xbd47ec3e	-0.048809282
101	0x3e0fbcf8	0.1403693
102	0xbdce1b51	-0.10063804
103	0x3e091781	0.13387872
104	0x3d3ae7a0	0.04563105
105	0x3d2c8db1	0.042127315
106	0x3deb3820	0.11485314
107	0xbc3d9c94	-0.011572976
108	0xbdc4a2a4	-0.09601334
109	0x3cebb748	0.028773919
110	0xbe28e92f	-0.16495202
111	0x3dff8121	0.12475801
112	0xbdf7342a	-0.120704964
113	0x3d9119ce	0.07085
114	0xbdd01a9e	-0.10161327
115	0xbddf58a0	-0.10905576
116	0x3cf06581	0.029345276
117	0x3c81735f	0.015802084
118	0xbdf52561	-0.1197002
119	0x3da31a47	0.079639964
120	0x3d9177db	0.07102939
121	0xbd40b1c7	-0.04704454
122	0x3da560dc	0.08075115
123	0xbdd3eb94	-0.10347667
124	0x3d837f0e	0.06420718
125	0xbc8f9af2	-0.017529938
126	0xbe334396	-0.1750625
127	0xbcedeff8	-0.02904509
128	0x3e0015e5	0.12508352
129	0x3dbbed21	0.09176088
130	0x3d53db89	0.051723037
131	0x3e1fa970	0.15591979
132	0x3df14942	0.11781551
133	0x3d50f66a	0.05101625
134	0xbe8ec7d2	-0.27886826
135	0xbe842faa	-0.25817615
136	0xbd0f50fd	-0.034989346
137	0xbdf70c7c	-0.12062928
138	0xbe464b81	-0.1936474
139	0xbe449520	-0.19197512
140	0xbed33900	-0.41254425
141	0xbe5dc0f2	-0.21655634
142	0xbe6f6167	-0.23377
143	0xbe189a18	-0.14902532
144	0x3d9bc074	0.07605067
145	0xbe0ccc45	-0.13749798
146	0xbe0bbe49	-0.13646807
147	0xbd48eef1	-0.049055997
148	0x3e0d803d	0.1381845
149	0x3cf04ac8	0.029332533
150	0x3da91865	0.08256606
151	0x3e2265aa	0.15859094
152	0x3d9f060b	0.077648245
153	0x3d301f7d	0.04299878
154	0x39e7f206	0.00044240075
155	0x3e2b4553	0.16725664
156	0x3da81a6f	0.08208167
157	0x3d4e97d8	0.05043778
158	0x3ba340cc	0.0049820896
159	0x3bbb20de	0.005710705
160	0xbcf3105e	-0.02967089
161	0xbdf9955b	-0.121866904
162	0xbe6c9ca8	-0.23106635
163	0xbdeeaf76	-0.1165456
164	0x3d9ebfd9	0.07751436
165	0x3dde4531	0.10853041
166	0xbd1e9b11	-0.0387221
167	0x3d9acea6	0.07558946
168	0xbda087dd	-0.07838414
169	0x3d1c3fcc	0.03814678
170	0xba1dd7a9	-0.00060212106
171	0xbe063611	-0.13106562
172	0x3c09276f	0.008371218
173	0xbe35ff4c	-0.1777317
174	0x3ba86979	0.0051395264
175	0xbdc28710	-0.094984174
176	0xbd99fe6c	-0.0751923
177	0xbde18f58	-0.11013669
178	0x3e26948a	0.162676
179	0xbd3ab665	-0.0455841
180	0x3ccf573a	0.025310148
181	0xbd692fba	-0.05693028
182	0xbd73af33	-0.059493255
183	0x3e275776	0.16341957
184	0x3e2774f3	0.16353206
185	0xbb973a39	-0.004615095
186	0xbbeccd5f	-0.0072266306
187	0xbe32b2f9	-0.17451085
188	0xbd9d124d	-0.07669506
189	0x3cd82e40	0.026389241
190	0x3d89d224	0.06729534
191	0x3e172dcc	0.14763564
192	0x3e78c505	0.24293907
193	0xbd038c39	-0.03211615
194	0x3d76403d	0.060119856
195	0xbdcc3c5c	-0.0997245
196	0xbdbe0c6f	-0.09279715
197	0x3d31f797	0.04344901
198	0xbce51e16	-0.027968448
199	0x3d98b3b6	0.07456152
200	0xbda2a2aa	-0.07941182
201	0xbd50f0e4	-0.05101098
202	0x3d5e49d3	0.054269623
203	0x3e266317	0.16248737
204	0xbd68f65e	-0.05687558
205	0x3dabad39	0.08382649
206	0x3e7aad88	0.2448026
207	0xbdbcac6e	-0.09212576
208	0x3d98b642	0.07456638
209	0x3d9a804e	0.075440034
210	0x3cc192db	0.023629596
211	0xbdcf5aee	-0.10124765
212	0x3d65bcbe	0.0560882
213	0x3d45e385	0.048312683
214	0xbe141108	-0.14459622
215	0xbd514a7a	-0.051096417
216	0x3cd2b2ed	0.025720084
217	0xbdb75f6b	-0.089537464
218	0x3d339e86	0.04385235
219	0xbe575eba	-0.21032229
220	0xbe334357	-0.17506157
221	0xbd3041cb	-0.043031495
222	0x3e14e31c	0.1453976
223	0xbdc8f007	-0.098114066
224	0xbd2f6280	-0.042818546
225	0x3d5d9b74	0.05410333
226	0xbe11d7a6	-0.1424242
227	0xbe1a5549	-0.15071596
228	0x3d41a6c0	0.047278166
229	0x3e23d299	0.15998305
230	0xbc9dea7d	-0.019276852
231	0xbdfbf7c5	-0.12303118
232	0xbdacdca3	-0.084405206
233	0xbe07451d	-0.13209958
234	0xbd7fc257	-0.062441196
235	0xbe12d531	-0.14339139
236	0x3e03eedb	0.12884085
237	0x3d9cd0ff	0.0765705
238	0xbd711fed	-0.058868337
239	0xbdbce75b	-0.09223815
240	0x3d281ad9	0.04104123
241	0x3dcb6fa7	0.09933405
242	0xbd47a1e9	-0.048738394
243	0xbe02e329	-0.12781967
244	0x3e290f85	0.16509826
245	0x3c1b7b68	0.009489872
246	0x3dfe083a	0.12403913
247	0x3e1d2f19	0.15349998
248	0x3c66e715	0.01409318
249	0x3caa4dad	0.020788992
250	0x3dc9617d	0.098330475
251	0x3cae67f5	0.021289805
252	0x3e785d8d	0.24254437
253	0xbd91ffbf	-0.07128858
254	0xbdc78bfb	-0.09743496
255	0xbe195e5d	-0.14977403
