android/collect_data/app/src/main/ml/win2_lab50_acc93.tflite (tflite, 69020 bytes, 16 tensors)

arith.constant f4 [6, 10]
-0.8194858 0.0005742525 -0.6431412 -0.19613512 0.41106886 -0.46026722 0.1503277 0.5659502
0.035443835 -0.19988966 -0.73236156 -0.6147745 -0.42832786 -0.28011876 -0.014377474 0.3647053
0.5185377 0.36345628 -0.20253792 0.29952717 -0.20665523 -0.32739857 0.5303678 -0.78316873
-1.0909008 0.4985517 0.20056982 0.5134175 0.67882955 -0.39339656 -0.47234467 -0.7650185
0.1036199 -0.8720834 0.33692673 0.47444922 -1.2172501 0.040906414 -1.7235781 -0.3205523
-0.7134877 0.6670965 0.10739144 0.22387427 -0.72540605 -0.24633256 0.09089832 0.55502385
-0.95687884 -0.30988798 0.2769891 -0.42833346 -0.68360585 -0.20716731 0.31936562 0.3482652
0.4342058 -1.0374833 -1.8133516 0.51858675
00000000: d2c9 51bf 6f89 163a e7a4 24bf a5d7 48be
00000010: 9e77 d23e 25a8 ebbe 81ef 193e 1de2 103f
00000020: 8e2d 113d e0af 4cbe 0c7c 3bbf dd61 1dbf
00000030: ca4d dbbe ba6b 8fbe 7f8f 6bbc a7ba ba3e
00000040: e3be 043f f116 ba3e 1a66 4fbe a05b 993e
00000050: 6e9d 53be c9a0 a7be 2fc6 073f bf7d 48bf
00000060: a3a2 8bbf 2b42 ff3e 2d62 4d3e 546f 033f
00000070: c6c7 2d3f 466b c9be 29d7 f1be 41d8 43bf
00000080: ac36 d43d dc40 5fbf a981 ac3e 02eb f23e
00000090: dace 9bbf 7c8d 273d 359e dcbf 6e1f a4be
000000a0: 21a7 36bf d6c6 2a3f 0bf0 db3d 4c3f 653e
000000b0: 36b4 39bf 9a3e 7cbe e628 ba3d 0b16 0e3f
000000c0: 03f6 74bf a3a9 9ebe 84d1 8d3e 864e dbbe
000000d0: cb00 2fbf ab23 54be e483 a33e d14f b23e
000000e0: 3950 de3e 41cc 84bf e81b e8bf 1ac2 043f

arith.constant1 f4 [10, 15]
0.35755616 0.46143037 -0.5021597 -0.32565284 0.08303568 0.29821572 -0.20974031 -0.14770043
-0.09906339 0.91648084 -0.45108014 0.11964056 0.14905943 0.40117684 0.048367858 0.046693545
-0.037576746 0.0624863 0.3844562 -0.27992806 -0.1874647 0.37876633 0.42937985 -0.25781634
-0.3577822 -0.46883997 -0.17491686 0.6074178 0.03930065 -0.20630352 0.6307346 0.3635306
-0.3979928 0.7125732 0.39476418 0.38189825 -0.34792066 0.1452783 -0.24443471 -0.6529822
-0.15202095 -0.013707608 -0.24891035 -0.5532706 -0.17640819 -0.3416209 -0.5299633 0.19033408
0.39351398 -0.06623096 -0.7801888 0.48745808 -0.20409697 0.19828579 0.2229727 -0.13710634
0.4546325 0.23230283 -0.1110011 -0.3830365 -0.45065415 0.6729435 0.41615674 -0.20846507
0.53154105 0.03143624 0.07939848 0.09638183 0.0005211226 0.92787164 0.5415143 -0.036677297
-0.2980508 -0.69848603 -0.19866283 0.13209352 0.26955843 0.10448606 0.15063664 0.61050093
0.5273852 -0.30157134 -0.16463454 -0.18266146 0.11250495 0.10182434 -0.45183858 0.037518874
1.3341491 0.19535623 0.5793289 -0.009884927 -0.21269871 0.18859066 0.7489073 0.08474217
0.04946514 -0.38451234 -0.3701923 -0.10583514 0.3619657 -0.30952412 0.7430808 -0.15811148
0.75832796 -0.21956734 -0.4416706 0.37685764 0.51329225 -0.60798204 -0.3206748 0.046036094
0.00032004714 0.18517125 0.051150344 0.3329588 0.20546505 0.31728306 -0.49698648 -0.10488758
-0.47942445 -0.046380933 -0.27225307 0.12847209 0.65182287 -0.3699913 -0.30094993 0.43549892
-0.08833504 0.04106666 -0.8579576 0.21273342 -0.2291827 0.43659356 0.419537 -0.36452794
-0.2817301 -0.043961786 -0.7766899 -0.64761907 0.33088672 -0.24388967 -0.33032346 -0.027529933
-0.02509159 -0.2478581 0.33536416 0.33914986 0.068395786 0.21349587
00000000: 9a11 b73e 9a40 ec3e 8a8d 00bf f8bb a6be
00000010: 9c0e aa3d bbaf 983e 2ac6 56be c83e 17be
00000020: bfe1 cabd 7d9e 6a3f faf3 e6be 1c06 f53d
00000030: 09a3 183e 0d67 cd3e 601d 463d bb41 3f3d
00000040: 13ea 19bd a2f1 7f3d 71d7 c43e bb52 8fbe
00000050: bff6 3fbe a9ed c13e add7 db3e 8100 84be
00000060: 3b2f b7be cb0b f0be 681d 33be bc7f 1b3f
00000070: b8f9 203d 3b41 53be d377 213f af20 ba3e
00000080: b6c5 cbbe 326b 363f 881e ca3e 2b88 c33e
00000090: a822 b2be d6c3 143e 184d 7abe d729 27bf
000000a0: 61ab 1bbe e095 60bc 5be2 7ebe 24a3 0dbf
000000b0: 59a4 34be efe8 aebe adab 07bf f0e6 423e
000000c0: aa7a c93e 19a4 87bd 74ba 47bf 1b94 f93e
000000d0: ccfe 50be 6e0b 4b3e f552 643e 9b65 0cbe
000000e0: 97c5 e83e cbe0 6d3e 8b54 e3bd 5c1d c4be
000000f0: 24bc e6be 0646 2c3f 7f12 d53e de77 55be
00000100: 1313 083f 49c3 003d ac9b a23d d663 c53d
00000110: f29b 083a ff88 6d3f aea0 0a3f ef3a 16bd
00000120: 1d9a 98be fbcf 32bf 456e 4bbe 8643 073e
00000130: 9003 8a3e cafc d53d 7e40 1a3e ca49 1c3f
00000140: b702 073f 8f67 9abe f595 28be 9b0b 3bbe
00000150: ff68 e63d 4889 d03d 6357 e7be 64ad 193d
00000160: 66c5 aa3f 770b 483e e64e 143f 64f4 21bc
00000170: b1cd 59be e91d 413e 64b8 3f3f 4e8d ad3d
00000180: f59b 4a3d cdde c4be d889 bdbe 18c0 d8bd
00000190: 9153 b93e f279 9ebe 8b3a 3e3f fae7 21be
000001a0: c821 423f 43d6 60be a622 e2be 7cf3 c03e
000001b0: 1f67 033f b6a4 1bbf 7d2f a4be 5890 3c3d
000001c0: 00cc a739 889d 3d3e 0683 513d 9379 aa3e
000001d0: 6e65 523e ed72 a23e 0375 febe 4dcf d6bd
000001e0: 1f77 f5be eff9 3dbd c164 8bbe 308e 033e
000001f0: dddd 263f 806f bdbe 1c16 9abe b7f9 de3e
00000200: 00e9 b4bd 8435 283d 1ca3 5bbf cad6 593e
00000210: dfae 6abe 3189 df3e 8ecd d63e 68a3 babe
00000220: ed3e 90be 4611 34bd 26d5 46bf 5dca 25bf
00000230: fc69 a93e 37be 79be 2820 a9be 7486 e1bc
00000240: e18c cdbc 84ce 7dbe dab4 ab3e 0da5 ad3e
00000250: 1713 8c3d a99e 5a3e

arith.constant2 f4 [15, 25]
-0.1478172 0.2092097 -0.22976865 0.3916839 -0.15479137 -0.2909036 0.16746181 0.14683187
0.09649289 0.37455586 0.27661002 0.3908255 -0.14440559 0.27874738 0.4107657 0.1577406
0.046679396 0.5203942 -0.08643901 -0.3239009 -0.2678786 0.39688832 0.18891138 -0.31985512
0.54400074 0.023806382 0.016702937 0.3736108 0.33043468 0.33709022 -0.37318346 0.0021876784
0.19397217 0.26943895 0.24445058 -0.13414958 -0.37005344 -0.544863 0.2558775 -0.22861598
0.04181677 0.08894998 0.5184326 -0.35710198 0.5543108 -0.37101245 -0.48626018 -0.047235765
0.5750684 -0.36180672 0.2620976 -0.26089126 0.45416617 -0.46183217 -0.2771696 0.21772517
-0.28002828 0.18935788 0.05931121 -0.7756534 0.2619555 -0.4008114 -0.15126367 0.026740257
0.4271086 0.3104307 0.47593045 -0.3026628 -0.36188164 0.1583878 0.31075272 -0.41661614
-0.35524908 0.5216272 -0.40514663 -0.5913933 0.0085439775 0.005731107 0.1610712 0.38696584
0.46808153 0.20737159 -0.3469842 -0.1759733 0.6429254 0.3892076 0.5016653 0.35886255
-0.26267558 0.4299309 -0.33347684 -0.3287259 0.25467226 0.33690733 -0.34772047 0.053210072
0.39237547 -0.25542372 0.2656511 -0.08141496 -0.49393708 -0.23242348 -0.06406326 -0.6959235
0.06277001 -0.16832575 0.35359958 -0.12952077 -0.5080155 -0.12428668 -0.5423322 -0.55785567
0.32902315 -0.075494386 -0.11495617 -0.44998983 -0.41552114 -0.2845404 0.34604502 0.35819006
0.24519533 0.19599515 0.010792702 0.19724558 0.45551136 0.100849934 -0.36387408 0.11780967
0.23633352 -0.21943018 -0.31820586 0.38848448 0.11962819 0.22015974 0.3977905 -0.3109328
-0.28132647 -0.5499864 0.29194507 0.21727236 0.35264677 -0.3776655 0.46162838 0.16570175
0.18460618 -0.3268861 0.4588261 -0.32911652 0.4441143 -0.10314503 0.1932895 -0.1450197
0.028664596 -0.23843004 0.039057612 -0.21760505 -0.15397106 -0.13828392 0.0041475203 -0.16983436
-0.011893044 -0.17064407 0.37339884 -0.01622482 0.38358298 -0.38352653 -0.17745142 -0.33094665
-0.24916466 0.16386771 -0.37389255 -0.123827875 -0.33289805 -0.26580822 0.011914891 -0.21995495
-0.019834071 0.41365048 -0.28183866 0.036394715 -0.17762698 0.24763745 -0.01083684 0.02368542
-0.03292674 -0.31640705 0.09202525 -0.1074951 -0.015376258 -0.28752854 0.24101387 -0.25656658
-0.19249669 -0.3406161 -0.2590794 -0.2537307 0.0065073096 0.13159561 0.042781524 -0.32345822
-0.28396276 0.050329432 0.10257469 -0.1907836 -0.23430961 0.16580075 0.031250067 0.35941857
-0.14800894 -0.36735252 -0.004488097 -0.21446045 -0.03188465 0.34428895 -0.058780104 -0.058049552
0.2399015 -0.17602079 -0.001134485 0.035368495 -0.39027753 -0.2746132 -0.07169616 -0.24499722
-0.31405857 -0.30940205 0.24287961 -0.32079026 0.0594122 -0.19942199 -0.060231343 -0.106581844
-0.031187356 0.40299162 0.2752222 -0.21748523 -0.11042722 -0.2516097 0.37215272 -0.4419714
0.22175457 0.022446763 -0.11353847 0.3134215 0.52116126 -0.2783923 -0.19978595 -0.1188699
0.26419616 0.09951053 0.5824971 0.06784171 0.19293304 0.4725978 -0.041309334 -0.062025692
00000000: 645d 17be 113b 563e 7948 6bbe cb8a c83e
00000010: a181 1ebe 51f1 94be 1c7b 2b3e 185b 163e
00000020: 109e c53d c9c5 bf3e d49f 8d3e 481a c83e
00000030: 0fdf 13be fab7 8e3e e24f d23e c086 213e
00000040: e532 3f3d 8e38 053f f006 b1bd 57d6 a5be
00000050: 6227 89be f234 cb3e fc71 413e 0dc4 a3be
00000060: a243 0b3f 9a05 c33c 99d4 883c ea49 bf3e
00000070: bc2e a93e 1797 ac3e e711 bfbe 275f 0f3b
00000080: a4a0 463e e7f3 893e 4151 7a3e 825e 09be
00000090: a577 bdbe 247c 0bbf 6002 833e 4f1a 6abe
000000a0: 1048 2b3d 682b b63d 00b8 043f 12d6 b6be
000000b0: 50e7 0d3f 58f5 bdbe 18f7 f8be 4a7a 41bd
000000c0: af37 133f bb3e b9be a831 863e 8a93 85be
000000d0: 7888 e83e 4475 ecbe 2ce9 8dbe 59f3 5e3e
000000e0: de5f 8fbe 08e7 413e 50f0 723d 3991 46bf
000000f0: 081f 863e 2737 cdbe dde4 1abe 620e db3c
00000100: faad da3e c6f0 9e3e 28ad f33e 9ef6 9abe
00000110: 8d48 b9be 6930 223e fb1a 9f3e b64e d5be
00000120: 35e3 b5be 5c89 053f 616f cfbe 8d65 17bf
00000130: 0afc 0b3c 03cc bb3b d9ef 243e 6320 c63e
00000140: 62a8 ef3e 3859 543e eaa7 b1be 5832 34be
00000150: c296 243f 3846 c73e 236d 003f d5bc b73e
00000160: 6a7d 86be e71f dc3e 7abd aabe c34e a8be
00000170: 6764 823e 1e7f ac3e 6b08 b2be cef2 593d
00000180: 70e5 c83e e6c6 82be 6c03 883e e3bc a6bd
00000190: 52e5 fcbe 6c00 6ebe 9933 83bd 0b28 32bf
000001a0: 908d 803d 965d 2cbe 010b b53e 18a1 04be
000001b0: 4e0d 02bf 048a febd 48d6 0abf a1cf 0ebf
000001c0: b975 a83e cd9c 9abd 246e ebbd 1165 e6be
000001d0: 30bf d4be 48af 91be d02c b13e b064 b73e
000001e0: 7c14 7b3e f4b2 483e e0d3 303c bffa 493e
000001f0: c938 e93e 698a ce3d b44d babe 3246 f13d
00000200: 6a01 723e 4eb2 60be e1eb a2be 70e7 c63e
00000210: a0ff f43d 8e71 613e 32ab cb3e 9532 9fbe
00000220: 060a 90be e9cb 0cbf d379 953e a57c 5e3e
00000230: 1e8e b43e 5f5d c1be 8e5a ec3e b8ad 293e
00000240: 6709 3d3e 9d5d a7be 41eb ea3e f681 a8be
00000250: f362 e33e b43d d3bd afed 453e 0b80 14be
00000260: 04d2 ea3c 0127 74be e0fa 1f3d dcd3 5ebe
00000270: 97aa 1dbe 4d9a 0dbe ece7 873b 0fe9 2dbe
00000280: 0bdb 42bc 52bd 2ebe 222e bf3e eae9 84bc
00000290: fd64 c43e 975d c4be d3b5 35be d771 a9be
000002a0: 0525 7fbe f0cc 273e d86e bfbe 7899 fdbd
000002b0: 9d71 aabe 0418 88be ad36 433c df3b 61be
000002c0: 107b a2bc ffc9 d33e 284d 90be a012 153d
000002d0: d9e3 35be ac94 7d3e 008d 31bc ed07 c23c
000002e0: 30de 06bd 1b00 a2be bc77 bc3d 6426 dcbd
000002f0: b3ec 7bbc f136 93be 57cc 763e b25c 83be
00000300: da1d 45be 3c65 aebe 0ea6 84be fee8 81be
00000310: 453b d53b 00c1 063e ae3b 2f3d 519c a5be
00000320: 9163 91be 3c26 4e3d ae12 d23d c75c 43be
00000330: dcee 6fbe acc7 293e 1200 003d b605 b83e
00000340: a88f 17be a115 bcbe e310 93bb 859b 5bbe
00000350: 7b99 02bd a446 b03e 68c3 70bd 5ec5 6dbd
00000360: bda8 753e cb3e 34be 00b3 94ba 8ede 103d
00000370: 75d2 c7be 1a9a 8cbe 70d5 92bd 8de0 7abe
00000380: 49cc a0be f269 9ebe 6fb5 783e 9f3e a4be
00000390: 355a 733d 4735 4cbe 24b5 76bd 9547 dabd
000003a0: a07c ffbc eb54 ce3e ede9 8c3e 73b4 5ebe
000003b0: ab27 e2bd fdd2 80be cd8a be3e 134a e2be
000003c0: a113 633e 46e2 b73c db86 e8bd c878 a03e
000003d0: d36a 053f 6f89 8ebe b094 4cbe 1072 f3bd
000003e0: b844 873e 2dcc cb3d 881e 153f 98f0 8a3d
000003f0: 3d90 453e 57f8 f13e fa33 29bd a70e 7ebd

arith.constant3 f4 [25, 35]
-0.5828742 0.111906424 0.07324601 0.14513905 -0.30086845 0.29802603 0.3330516 -0.10428961
0.42179638 0.056392886 0.28799066 0.39079913 -0.08754957 -0.109814994 0.3890256 0.055379763
0.14383934 -0.28664953 -0.09023985 -0.12352534 0.4866451 -0.019600634 0.17636469 0.15077743
0.3133643 0.36598983 -0.002729529 -0.14308463 -0.057335265 -0.36745626 0.16126965 -0.1398576
-0.28796464 0.29157463 -0.16050538 -0.005590908 -0.1145851 -0.1958786 -0.08087397 -0.29697198
0.00057827996 0.07606594 -0.27773923 -0.017675057 0.049567193 -0.22867405 -0.21430331 -0.18748675
0.06307275 -0.22437514 0.22778372 -0.2562932 0.20670268 -0.19421448 -0.21046856 -0.13529786
-0.03604067 0.24309312 -0.30306414 0.1516218 0.039047297 -0.05019325 -0.0891484 0.01687473
0.11309678 0.20639506 0.02454362 0.108248405 0.08894034 -0.14325187 0.664361 0.53034496
-0.4733998 -0.07023054 -0.2182985 0.17493118 0.40955716 0.19986077 0.018906979 0.1817042
0.536095 -0.3713994 0.19566326 0.58082026 0.21054895 -0.058566067 0.031270925 0.14719704
0.46901262 -0.18524522 0.048813794 -0.1117277 0.018429086 -0.27998233 0.12667085 -0.14243037
0.15782256 0.042662166 0.37715262 -0.21811423 0.2610188 -0.43539798 -0.23705909 0.21799561
0.3388512 -0.17952555 -0.20067057 -0.14955038 0.40095237 -0.15521987 -0.056967538 0.33712777
0.39080113 0.42352277 -0.11281211 -0.20233148 0.12855399 0.1700253 0.32671285 -0.100935295
0.41504937 -0.28246 0.046232626 -0.25834337 0.087563574 -0.16901882 0.13719358 0.00925483
0.25726306 0.2996358 0.055220112 0.38423157 0.08269674 0.21424992 -0.032342512 -0.26483902
0.03653002 -0.3844568 0.03741022 0.3538777 -0.27742317 0.017167347 -0.038287695 -0.24222398
0.23283496 0.27750832 -0.09511849 -0.3484793 0.22457635 -0.109723985 -0.28653497 0.23431921
0.19480869 0.11537687 -0.19902076 0.1258551 -0.28780183 0.25716898 0.23113406 -0.2330306
-0.28671014 -0.1453766 -0.25034064 -0.2120289 -0.3042968 0.065800965 -0.076097935 -0.04506913
-0.091563284 0.1939435 0.10640846 -0.3174323 -0.12708442 -0.013376355 -0.31263688 -0.014439794
0.033114195 0.3132247 -0.14374514 0.11988771 0.33622727 -0.26378566 -0.06756163 -0.26834112
0.2886359 0.435417 0.24649113 -0.22695585 0.17033695 -0.27900344 -0.28034356 0.4594226
-0.08562218 0.13000084 0.10728225 0.12978913 0.36592746 -0.08814872 -0.046134505 0.37139922
0.263828 0.08503697 0.23231407 -0.052528195 0.54789007 -0.009829428 0.19171433 0.37260085
0.090121895 0.38664007 0.45305353 0.057564706 0.31348044 -0.33505988 0.15837762 -0.45981175
0.05788406 -0.5860687 0.12298515 -0.3146294 0.16526659 -0.11048136 -0.2331632 0.068316124
0.19978543 -0.06713315 0.3947813 0.38272905 -0.14103925 0.20456591 -0.36766404 -0.10226846
0.05128376 -0.2909377 0.049571656 -0.09120008 0.13051102 -0.028442403 -0.4365138 0.5441608
0.11687103 0.36865678 0.12024604 -0.2438196 0.086903416 -0.20668277 0.2837375 -0.17998637
-0.17107059 0.15461007 -0.3065924 -0.2843398 -0.16683832 -0.0016063452 0.1699166 -0.022701979
00000000: 3e37 15bf 322f e53d 0102 963d 559f 143e
00000010: 6e0b 9abe de96 983e bd85 aa3e cb95 d5bd
00000020: b2f5 d73e 3afc 663d 8373 933e d316 c83e
00000030: 304d b3bd afe6 e0bd 5d2e c73e e4d5 623d
00000040: 9f4a 133e bac3 92be accf b8bd dafa fcbd
00000050: 8c29 f93e 8291 a0bc f298 343e 6665 1a3e
00000060: 4971 a03e 0563 bb3e e6e1 32bb c784 12be
00000070: 62d8 6abd 3a23 bcbe df23 253e d536 0fbe
00000080: 1a70 93be 4549 953e 865b 24be f033 b7bb
00000090: 98ab eabd 6694 48be 41a1 a5bd b60c 98be
000000a0: b697 173a 76c8 9b3d d633 8ebe 48cb 90bc
000000b0: f806 4b3d 8829 6abe 5472 5bbe 87fc 3fbe
000000c0: 492c 813d 99c2 65be 2340 693e dd38 83be
000000d0: dea9 533e 29e0 46be 1285 57be 868b 0abe
000000e0: 629f 13bd 67ed 783e 392b 9bbe bf42 1b3e
000000f0: 0ff0 1f3d 7097 4dbd 7093 b6bd e03c 8a3c
00000100: 499f e73d 3a59 533e b40f c93c 57b1 dd3d
00000110: 5a26 b63d 9eb0 12be 9013 2a3f b0c4 073f
00000120: 7561 f2be 08d5 8fbd a489 5fbe 2921 333e
00000130: 7ab1 d13e 4da8 4c3e cfe2 9a3c aa10 3a3e
00000140: 863d 093f 1028 bebe f35b 483e a3b0 143f
00000150: 259a 573e f9e2 6fbd f115 003d d2ba 163e
00000160: 6c22 f03e ecb0 3dbe f9f0 473d 7ed1 e4bd
00000170: 98f8 963c d859 8fbe 01b6 013e 44d9 11be
00000180: 3d9c 213e 86be 2e3d 261a c13e 5659 5fbe
00000190: 42a4 853e 7cec debe 9ebf 72be 3e3a 5f3e
000001a0: e87d ad3e 8cd5 37be 967c 4dbe bc23 19be
000001b0: a149 cd3e f5f1 1ebe cb56 69bd 039c ac3e
000001c0: 1617 c83e fad7 d83e 090a e7bd fc2f 4fbe
000001d0: a8a3 033e 1d1b 2e3e e846 a73e 2ab7 cebd
000001e0: 5a81 d43e 999e 90be 6c5e 3d3d 9545 84be
000001f0: 8854 b33d 4513 2dbe 797c 0c3e 92a1 173c
00000200: fcb7 833e dd69 993e 7c2e 623d 00ba c43e
00000210: e95c a93d 5564 5b3e 9579 04bd fb98 87be
00000220: 81a0 153d 86d7 c4be 753b 193d 752f b53e
00000230: 690a 8ebe 89a2 8c3c 8fd3 1cbd 9009 78be
00000240: 4a6c 6e3e 9215 8e3e 7ccd c2bd e16b b2be
00000250: 58f7 653e f8b6 e0bd b6b4 92be 60f1 6f3e
00000260: ee7b 473e b54a ec3d 19cc 4bbe 29e0 003e
00000270: c35a 93be a7ab 833e 68ae 6c3e 939f 6ebe
00000280: accb 92be 9add 14be a62c 80be 1b1e 59be
00000290: cacc 9bbe a8c2 863d 3cd9 9bbd 689a 38bd
000002a0: 8885 bbbd 2099 463e aeec d93d 7d86 a2be
000002b0: 6b22 02be 8028 5bbc f111 a0be e394 6cbc
000002c0: c0a2 073d fd5e a03e ed31 13be b087 f53d
000002d0: fb25 ac3e ea0e 87be c05d 8abd 0264 89be
000002e0: 16c8 933e faee de3e 2c68 7c3e 1d67 68be
000002f0: cf6c 2e3e 8ad9 8ebe 3189 8fbe 7039 eb3e
00000300: ae5a afbd f11e 053e ccb6 db3d 71e7 043e
00000310: d85a bb3e 5187 b4bd 89f7 3cbd 0a28 be3e
00000320: 7714 873e dd27 ae3d bde3 6d3e ce27 57bd
00000330: 8642 0c3f 9c0b 21bc c350 443e 8ac5 be3e
00000340: d491 b83d b0f5 c53e a2f6 e73e f8c8 6b3d
00000350: 8280 a03e f88c abbe be2d 223e 726c ebbe
00000360: d617 6d3d 9908 16bf a3df fb3d 1b17 a1be
00000370: a53b 293e 0d44 e2bd 55c2 6ebe 53e9 8b3d
00000380: 8d94 4c3e 1b7d 89bd c620 ca3e 10f5 c33e
00000390: 986c 10be ba79 513e 763e bcbe 2072 d1bd
000003a0: ec0e 523d c9f5 94be a60b 4b3d 1cc7 babd
000003b0: aea4 053e 0b00 e9bc bd7e dfbe 1f4e 0b3f
000003c0: 145a ef3d 95c0 bc3e 8e43 f63d d8ab 79be
000003d0: 6bfa b13d a6a4 53be 0b46 913e 594e 38be
000003e0: 212d 2fbe 1a52 1e3e aef9 9cbe fc94 91be
000003f0: aad7 2abe 008c d2ba 9efe 2d3e 80f9 b9bc

arith.constant4 f4 [35, 45]
-0.15972763 0.092769384 0.53366596 0.1315028 0.11955441 -0.66285753 0.2975144 -0.33772752
0.2845867 0.16435099 0.1508047 0.11481392 0.09795183 0.4471806 -0.11079327 -0.16614196
-0.11917364 0.163824 0.15758297 0.11603306 -0.21157911 -0.27749187 -0.20440865 0.21075745
-0.44155318 -0.20409133 0.072458416 -0.30111325 -0.50745463 -0.22152849 0.10814656 0.16990553
-0.49359578 0.26150516 0.08517706 0.21310903 -0.12649028 0.40082428 0.079156496 0.02514319
-0.19260597 -0.00083953654 -0.25792736 0.6538463 0.4945264 0.1137325 0.026967809 0.005210101
0.22471717 0.045473393 -0.38846594 0.018128326 -0.29740894 0.13939153 -0.35803038 -0.19987535
0.36771536 0.11372037 -0.08146958 -0.091106154 0.4324373 -0.41269237 -0.050168745 -0.07303527
-0.3592251 0.057368357 -0.21421301 0.059161693 0.16352047 -0.04256707 0.33855122 0.1618019
0.032925434 -0.29033947 0.24924518 0.27582535 0.44610012 -0.2751724 0.23195921 0.2763367
-0.08435423 0.26626512 0.55193794 -0.1241671 0.32002068 -0.049186155 0.16480662 -0.028329935
0.30640313 0.51923007 0.24625494 0.26968896 0.07104099 0.13157305 -0.012300886 -0.0036097276
0.11668885 -0.38122597 0.106494606 0.06205655 0.15011376 -0.41047776 -0.21070404 -0.02785578
0.051815093 0.2354334 -0.22842398 -0.1412843 -0.031904247 -0.5027896 -0.16949263 -0.07814987
0.25350168 -0.12453385 0.20585601 0.45548868 0.26291078 0.047952186 -0.213308 -0.47149444
-0.3322874 -0.16484594 0.13599725 -0.41335896 0.061693028 -0.13423616 -0.53528446 0.14730984
-0.27944952 0.08684259 -0.02738715 0.08622676 -0.10541671 -0.28525472 -0.34061834 -0.35477978
0.07471001 -0.066880316 -0.20691735 -0.19686231 0.38676482 0.38212174 0.35719967 0.085134104
0.07842355 -0.13989997 0.008795619 0.19700654 0.27088556 0.30870256 0.10610031 0.025231196
0.1541708 0.36678445 0.3273681 0.17927769 0.1655904 0.27949384 0.056196667 -0.1771781
-0.23561302 0.15494874 -0.11581759 0.33139363 0.27402565 0.30637848 -0.14421855 0.12435116
0.05052672 -0.076306336 0.14214519 0.027862618 -0.10690785 0.27373514 0.09996672 0.19803442
0.10053046 0.22254096 0.18973619 -0.25639346 -0.23081131 -0.26470783 -0.024841607 -0.09158501
-0.15560181 -0.2624003 0.033758163 0.01780212 -0.24575983 0.1385895 -0.1449895 -0.099874094
0.109217435 -0.21497917 -0.19394863 -0.10406399 -0.012906343 -0.23883648 0.22973907 -0.07328497
-0.044027746 0.040527225 -0.0035630167 -0.1973813 0.095282525 -0.004116565 0.020071268 -0.042614922
0.1093806 0.174732 -0.25587878 -0.25207314 -0.080250755 -0.009560496 0.03011772 -0.2615917
-0.23893169 0.15275365 -0.08103891 0.20560119 0.21200395 0.17275038 -0.034645125 0.17505226
-0.25372872 0.0025083655 0.04667973 0.20292802 0.15164277 0.2620517 -0.14398032 0.25841236
0.23370029 -0.1539404 -0.05761687 -0.03306868 0.28715172 -0.07375054 -0.3458265 0.14737739
0.20077962 0.103362374 0.28782722 0.19265705 -0.10307931 0.14465591 -0.05320979 -0.23586129
0.030317158 -0.17244968 0.20619306 0.38454998 0.02227241 -0.0786202 -0.18462257 0.44110006
00000000: a48f 23be e0fd bd3d 559e 083f aca8 063e
00000010: f1d8 f43d 08b1 29bf cf53 983e 9fea acbe
00000020: 59b5 913e a04b 283e 8c6c 1a3e 8f23 eb3d
00000030: f89a c83d dbf4 e43e 95e7 e2bd 1e21 2abe
00000040: 4f11 f4bd 7bc1 273e 6e5d 213e bea2 ed3d
00000050: 32a8 58be 6a13 8ebe 8050 51be cdd0 573e
00000060: 4213 e2be 51fd 50be 1465 943d 842b 9abe
00000070: 8ce8 01bf 5dd8 62be f27b dd3d b7fb 2d3e
00000080: 96b8 fcbe 01e4 853e 4f71 ae3d 4139 5a3e
00000090: ab86 01be d738 cd3e cd1c a23d 17f9 cd3c
000000a0: 803a 45be 5814 5cba 0e0f 84be 7962 273f
000000b0: 9032 fd3e 96ec e83d 98eb dc3c 7fb9 aa3b
000000c0: 421c 663e 4f42 3a3d 02e5 c6be db81 943c
000000d0: fc45 98be a7bc 0e3e c24f b7be 20ac 4cbe
000000e0: 3045 bc3e 3ae6 e83d 86d9 a6bd dd95 babd
000000f0: 6c68 dd3e 6a4c d3be be7d 4dbd 8493 95bd
00000100: 5aec b7be 15fb 6a3d a85a 5bbe 8853 723d
00000110: e971 273e cf5a 2ebd 9656 ad3e 66af 253e
00000120: d2dc 063d 60a7 94be 213a 7f3e fb38 8d3e
00000130: 3c67 e43e 66e3 8cbe b786 6d3e 017c 8d3e
00000140: e9c1 acbd e753 883e ce4b 0d3f 524b febd
00000150: c0d9 a33e 6c77 49bd 11c3 283e 2e14 e8bc
00000160: dfe0 9c3e 43ec 043f 412a 7c3e ac14 8a3e
00000170: f07d 913d 16bb 063e a889 49bc 2e91 6cbb
00000180: 90fa ee3d 0d30 c3be d819 da3d 022f 7e3d
00000190: 6cb7 193e 242a d2be cdc2 57be ce31 e4bc
000001a0: 103c 543d 7415 713e fae7 69be d5ac 10be
000001b0: 07ae 02bd d2b6 00bf 7a8f 2dbe 0a0d a0bd
000001c0: f9ca 813e 9a0b ffbd ebcb 523e d035 e93e
000001d0: 3e9c 863e 8369 443d 6a6d 5abe b867 f1be
000001e0: 9321 aabe 60cd 28be dd42 0b3e c9a3 d3be
000001f0: d4b1 7c3d 3475 09be 6708 09bf 64d8 163e
00000200: 0214 8fbe 87da b13d 045b e0bc a897 b03d
00000210: b7e4 d7bd e80c 92be 8765 aebe b2a5 b5be
00000220: 9001 993d 8cf8 88bd 24e2 53be 4696 49be
00000230: 0a06 c63e 76a5 c33e e0e2 b63e ca5a ae3d
00000240: 879c a03d f041 0fbe 801b 103c 15bc 493e
00000250: 83b1 8a3e 430e 9e3e 1f4b d93d a7b1 ce3c
00000260: f3de 1d3e 2ccb bb3e cb9c a73e 9294 373e
00000270: 8890 293e d119 8f3e 7a2e 663d 2d6e 35be
00000280: 8a44 71be e2aa 1e3e c631 edbd 6dac a93e
00000290: 174d 8c3e a4dd 9c3e 07ae 13be d2ab fe3d
000002a0: 1bf5 4e3d 7f46 9cbd 828e 113e 2540 e43c
000002b0: 81f2 dabd 0327 8c3e 5abb cc3d 89c9 4a3e
000002c0: eae2 cd3d c7e1 633e 344a 423e 0146 83be
000002d0: cd59 6cbe c987 87be a080 cbbc ec90 bbbd
000002e0: 1556 1fbe 5559 86be 0046 0a3d c0d5 913c
000002f0: 77a8 7bbe 68ea 0d3e 2178 14be ca8a ccbd
00000300: 64ad df3d 8023 5cbe 789a 46be 801f d5bd
00000310: 2075 53bc 8d91 74be b840 6b3e 6e16 96bd
00000320: 7056 34bd e0ff 253d 8081 69bb 531e 4abe
00000330: 7c23 c33d 40e4 86bb 806c a43c fc8c 2ebd
00000340: f002 e03d f2ec 323e 8b02 83be bb0f 81be
00000350: 825a a4bd a0a3 1cbc 70b9 f63c 59ef 85be
00000360: 82aa 74be 746b 1c3e baf7 a5bd 1e89 523e
00000370: 9017 593e 7ae5 303e 0ce8 0dbd e640 333e
00000380: bbe8 81be 6463 243b 3f33 3f3d 5dcc 4f3e
00000390: 3e48 1b3e a42b 863e 946f 13be a04e 843e
000003a0: 214f 6f3e 8da2 1dbe abff 6bbd 0673 07bd
000003b0: 8d05 933e 860a 97bd 2c10 b1be 19ea 163e
000003c0: 2c99 4d3e a7af d33d 175e 933e e447 453e
000003d0: 3f1b d3bd ae20 143e 82f2 59bd 9f85 71be
000003e0: b05b f83c a696 30be 4624 533e bce3 c43e
000003f0: a174 b63c a103 a1bd b30d 3dbe ded7 e13e

arith.constant5 f4 [45, 65]
0.038305115 0.007986508 0.120864876 0.040102128 -0.016843285 0.29833832 -0.026943784 0.26841223
0.39308575 0.03355256 -0.19733326 -0.014512695 0.15625237 0.15755159 0.19085099 -0.15242131
0.22318015 -0.18913515 -0.46226197 0.22267407 0.08061542 0.030406037 0.17866953 -0.6005587
-0.2844895 -0.04256158 0.07040176 -0.060143445 -0.27709356 0.21303311 -0.050923143 -0.0037058475
-0.120926864 0.23659495 0.34969687 0.061954908 0.18466587 -0.23000245 -0.13800675 0.24499917
-0.16373473 -0.019382233 -0.17710806 0.08442095 -0.019378258 0.22667469 -0.24669962 -0.04761989
0.4485584 0.37322792 0.1563373 0.3715604 -0.21370219 0.16157976 0.13256747 0.057268027
-0.13275683 0.2130978 -0.22666024 -0.06656851 -0.5383427 -0.18986838 0.3043615 0.08729127
-0.1396404 -0.0007394701 0.18342109 -0.23778038 0.034166336 -0.19789298 0.036607802 -0.21534058
-0.21076721 -0.22508025 0.1615521 -0.14937522 -0.2105575 -0.13026154 0.16650942 -0.018784352
-0.07563845 0.09697366 0.19190586 -0.12478634 0.06980824 -0.06535252 -0.013762236 -0.11877322
-0.15161978 -0.055193063 0.12402318 -0.012233242 0.0570924 0.052906103 -0.07262448 -0.1350323
-0.13618493 -0.18766417 -0.23036255 0.19086754 0.18913524 0.104982674 -0.14157888 0.076221175
-0.11275811 0.040489078 -0.082069725 0.045358233 -0.09573996 -0.032561004 -0.08818874 0.20077032
-0.2192403 0.090631746 0.081063055 -0.17779754 0.030012012 -0.12838867 -0.23838739 0.09005937
-0.04178527 0.21028024 -0.10411874 -0.16178922 0.09228918 -0.2160325 -0.07445657 0.0802728
-0.14419273 0.21855468 0.28123447 0.35271728 0.13370557 -0.043575644 -0.40985855 0.21835618
-0.26489052 -0.1807371 -0.066671565 -0.33510303 0.6028625 -0.40281644 -0.06379215 0.15646856
0.25397545 0.100024 -0.005273858 -0.12868227 -0.094807036 -0.030576624 0.12583774 -0.0776232
-0.0014892346 -0.5092571 -0.1260371 -0.6952398 0.07895033 -1.1441762 -0.9094024 -0.17958392
0.22304548 0.05689921 -0.15094887 0.449233 -0.30756885 0.07555052 -0.052870754 0.008653288
-0.9985649 -0.22238445 0.09628605 0.49572405 -1.0674809 0.17148118 0.4339996 0.23034266
-0.21272227 -0.29489848 0.080259226 0.048956536 0.033705454 0.4593931 0.05708712 0.15630732
0.3039826 0.10318653 0.54226357 -0.06392571 -0.21297017 -0.75640875 1.1911758 -0.62564456
-0.18211465 0.20966457 -0.40879357 -0.15280887 0.61411387 0.13336487 0.26060963 0.21605338
-0.0312706 0.13216268 0.36734766 0.18928646 -0.23057039 -0.1136873 0.3892437 0.05060554
0.30677235 0.37607947 0.1216014 0.12814529 -0.42753354 -0.30827376 0.13089252 -0.0136019075
-0.0615178 -0.014796309 0.07975498 0.5408864 0.15669045 0.323241 0.21028751 0.22438136
-0.30815324 0.18016511 -0.005230508 0.03199726 0.3204502 0.066489 0.23301625 0.26157302
-0.06462346 0.14051232 0.10505426 0.017017333 0.51894885 0.09071221 0.3627977 0.1229902
0.06283448 -0.13020815 0.11043658 -0.060705986 -0.25013703 -0.16089222 0.111431584 -0.0563834
0.1489682 0.14074263 0.2726689 0.26003337 0.13886929 0.17420124 0.17839222 -0.3604243
00000000: d3e5 1c3d d8d9 023c 0188 f73d 2142 243d
00000010: eefa 89bc cdbf 983e 36b9 dcbc 546d 893e
00000020: 8942 c93e 696e 093d bb11 4abe a8c6 6dbc
00000030: 9f00 203e 3455 213e 716e 433e 5514 1cbe
00000040: 5689 643e a5ac 41be 9aad ecbe ac04 643e
00000050: b319 a53d 1516 f93c 25f5 363e 37be 19bf
00000060: 9ca8 91be 0d55 2ebd cc2e 903d f958 76bd
00000070: 35df 8dbe 5a25 5a3e c994 50bd cedd 72bb
00000080: 81a8 f7bd f245 723e 780b b33e 6ec4 7d3d
00000090: 0d19 3d3e c385 6bbe a451 0dbe 10e1 7a3e
000000a0: 14aa 27be 7dc7 9ebc d15b 35be e4e4 ac3d
000000b0: 27bf 9ebc 691d 683e d39e 7cbe 130d 43bd
000000c0: 72a9 e53e bb17 bf3e e316 203e 2a3d be3e
000000d0: bfd4 5abe 2a75 253e c4bf 073e e191 6a3d
000000e0: 68f1 07be 4f36 5a3e 9f19 68be 1255 88bd
000000f0: d4d0 09bf db6c 42be 45d5 9b3e c4c5 b23d
00000100: e5fd 0ebe 00d9 41ba bdd2 3b3e b37c 73be
00000110: 00f2 0b3d 75a4 4abe 10f2 153d 3e82 5cbe
00000120: 5cd3 57be 707b 66be ea6d 253e d1f5 18be
00000130: 639c 57be 4863 05be 7281 2a3e a4e1 99bc
00000140: 55e8 9abd 209a c63d f882 443e fb8f ffbd
00000150: 9ff7 8e3d 8bd7 85bd 007b 61bc 603f f3bd
00000160: 3742 1bbe 1f12 62bd ddff fd3d f06d 48bc
00000170: b8d9 693d 12b4 583d 25bc 94bd e845 0abe
00000180: 1074 0bbe 092b 40be 29e4 6bbe c872 433e
00000190: abac 413e 2801 d73d 0efa 10be d919 9c3d
000001a0: b9ed e6bd e0d7 253d 2c14 a8bd 8ec9 393d
000001b0: 5013 c4bd b05e 05bd 4c9c b4bd bc96 4d3e
000001c0: 8780 60be 239d b93d 6304 a63d 8f10 36be
000001d0: c0db f53c 5278 03be d31b 74be 0c71 b83d
000001e0: 0827 2bbd b453 573e 353c d5bd 13ac 25be
000001f0: 1c02 bd3d a037 5dbe b07c 98bd 1166 a43d
00000200: 42a7 13be cccc 5f3e f7fd 8f3e 5c97 b43e
00000210: 1dea 083e 607c 32bd fbd8 d1be c398 5f3e
00000220: bb9f 87be 2513 39be 1a8b 88bd a092 abbe
00000230: 3255 1a3f f53d cebe 75a5 82bd 4b39 203e
00000240: 1209 823e 62d9 cc3d 54d0 acbb 49c5 03be
00000250: 312a c2bd d47b fabc 9cdb 003e eaf8 9ebd
00000260: 6c32 c3ba ac5e 02bf df0f 01be 3cfb 31bf
00000270: b6b0 a13d 5e74 92bf 98ce 68bf d9e4 37be
00000280: 0966 643e 250f 693d 5792 1abe de01 e63e
00000290: aa79 9dbe 3bba 9a3d 018f 58bd 85c6 0d3c
000002a0: f3a1 7fbf c0b8 63be 9f31 c53d 8bcf fd3e
000002b0: 37a3 88bf c398 2f3e 3235 de3e f2de 6b3e
000002c0: ded3 59be effc 96be f35e a43d a686 483d
000002d0: bb0e 0a3d 9335 eb3e 2fd4 693d 070f 203e
000002e0: 9ba3 9b3e 7653 d33d c9d1 0a3f 7ceb 82bd
000002f0: da14 5abe 01a4 41bf 7378 983f 3e2a 20bf
00000300: 437c 3abe 4fb2 563e 644d d1be ee79 1cbe
00000310: 9136 1d3f cd90 083e a06e 853e 193d 5d3e
00000320: 9a15 00bd a755 073e fe14 bc3e 4fd4 413e
00000330: a51a 6cbe e3d4 e8bd f34a c73e c147 4f3d
00000340: 4411 9d3e 7d8d c03e 280a f93d 8538 033e
00000350: ade5 dabe 0fd6 9dbe b008 063e 89da 5ebc
00000360: 17fa 7bbd 386c 72bc 9456 a33d 8877 0a3f
00000370: 7673 203e d87f a53e 9c55 573e 3ac4 653e
00000380: 43c6 9dbe 347d 383e ae64 abbb 8f0f 033d
00000390: 0c12 a43e 632b 883d d09b 6e3e e6ec 853e
000003a0: 4e59 84bd 76e2 0f3e b026 d73d ef67 8b3c
000003b0: d5d9 043f 53c7 b93d 9fc0 b93e 49e2 fb3d
000003c0: 5daf 803d 4955 05be 932c e23d d7a6 78bd
000003d0: f611 80be eec0 24be 3e36 e43d 48f2 66bd
000003e0: 1f8b 183e d61e 103e 429b 8b3e 1823 853e
000003f0: c033 0e3e cf61 323e 73ac 363e 8989 b8be

arith.constant6 f4 [65, 85]
0.0013737655 -0.12776165 0.21884927 0.16924256 0.26142198 -0.16411088 0.25186312 -0.2574223
0.19415289 0.087381504 -0.105192475 0.22789134 0.42474103 -0.042363726 -0.08933443 0.13334812
-0.0059257825 -0.03707384 -0.24832761 0.11995231 -0.1450667 -0.1281651 0.18001118 0.035338942
-0.18616799 -0.058030996 0.09358883 -0.005506242 -0.09442332 -0.18644942 0.45880115 -0.005764191
-0.09337794 0.057726547 0.22938521 -0.28109843 0.025219275 0.1367903 -0.119405694 -0.07547189
0.03929967 -0.1184708 -0.014490851 -0.071568504 0.008669515 0.18149273 -0.26404783 0.32513767
-0.27705958 0.20736971 -0.05088859 0.2355666 -0.6140508 -0.034218915 0.1859835 0.021864064
-0.11773448 -0.013652863 0.39702305 0.2151211 0.11397861 0.090657406 0.098912984 0.1419869
-0.117733315 -0.17893623 -0.18942925 0.020904932 0.17875123 0.29409805 0.10675023 0.15302148
0.082779 -0.06701494 -0.085050866 0.0074218144 0.033948988 -0.39124954 0.16791122 -0.40048304
0.21399508 -0.07232299 -0.06537976 0.19678621 -0.08116449 0.28206903 0.042196114 -0.33195007
0.10202896 -0.3983135 0.0807938 -0.029923378 -0.003992321 0.16235048 -0.21610464 -0.008006554
0.08688499 0.059941694 -0.07014484 0.5757713 0.26421052 -0.10882942 0.7194642 0.07700922
0.14338544 0.12497323 -0.093696944 -0.13489313 0.08339558 0.90515286 0.1537162 0.10359931
-0.41694745 0.17514265 -0.3056635 -0.3173611 -0.10121303 -0.080863 -0.10697272 -0.31231114
0.04063418 -0.13319106 -0.55571175 0.1298479 0.55564344 -0.25932485 0.11519547 -0.43581346
-0.39324328 -0.2875318 -0.20612495 0.17510538 0.26547387 0.23639376 -0.010809186 -0.25859103
-0.28152728 -0.8673816 -0.16210403 0.16484179 0.00087119313 0.48780873 0.17030407 0.2907471
0.14717837 0.041639738 0.00063459587 -0.64402664 0.40805444 0.10215985 0.048689578 -0.15116861
-0.21510305 -0.08400639 0.19271927 0.22224112 -0.063920714 -0.11205316 0.07566251 0.46110037
0.08635664 0.09814297 -0.39377028 -0.18011469 0.18544151 -0.36763057 0.4975724 0.18389426
-0.036435373 -0.2666775 0.3546221 -0.008926538 -0.17301096 0.12434607 -0.15991239 0.27321246
-0.25498077 0.113361694 -0.08216174 -0.0024576532 0.071828656 -0.103158444 -0.3687903 0.1951284
0.52384853 0.1437478 0.16912459 0.10906825 0.2328126 0.16990481 -0.107001774 0.15330742
0.11630184 -0.07457231 0.45057246 0.2970319 0.15194298 -0.12701246 0.18630141 -0.1745952
0.13745607 0.15840594 -0.031377126 0.19771653 -0.21909003 0.054033168 0.101660095 -0.23653525
0.046942074 0.20945261 -0.16650677 0.13566455 -0.04729093 0.11626329 0.077522196 -0.2186842
0.11721306 0.073624514 0.25585163 0.22189847 -0.20892538 0.054507095 0.06450898 -0.3081738
-0.2953332 0.22769614 0.014477961 0.03985886 0.27021226 0.1801863 -0.15813798 -0.012182072
-0.02209622 -0.07903386 0.045733184 -0.07592408 0.08693935 -0.026252542 -0.10677231 0.12877695
-0.10356822 0.15295167 0.23286183 0.088351145 0.6675591 -0.107376166 0.057819083 -0.13808441
-0.16643512 0.23332591 -0.2971631 0.39792657 0.30895695 0.16729723 0.26846415 -0.18371585
00000000: ec0f b43a f3d3 02be 061a 603e ec4d 2d3e
00000010: 1ad9 853e af0c 28be 34f4 803e dbcc 83be
00000020: 04d0 463e 13f5 b23d 276f d7bd 595c 693e
00000030: a877 d93e 9685 2dbd f8f4 b6bd 698c 083e
00000040: 112d c2bb bdda 17bd 9849 7ebe 8fa9 f53d
00000050: 5d8c 14be b63d 03be da54 383e 91bf 103d
00000060: d2a2 3ebe e9b1 6dbd 80ab bf3d b56d b4bb
00000070: 0361 c1bd 99ec 3ebe fce7 ea3e 8ae1 bcbb
00000080: ef3c bfbd ac72 6c3d f5e3 6a3e 22ec 8fbe
00000090: a798 ce3c c212 0c3e f98a f4bd 0291 9abd
000000a0: b1f8 203d d2a0 f2bd 096b 6dbc 8292 92bd
000000b0: 950a 0e3c 3bd9 393e 4731 87be 7278 a63e
000000c0: c1da 8dbe ba58 543e 8e70 50bd 5f38 713e
000000d0: 6f32 1dbf 2229 0cbd 7572 3e3e 441c b33c
000000e0: c61e f1bd 42b0 5fbc 9b46 cb3e b548 5c3e
000000f0: 9e6d e93d 97aa b93d e492 ca3d 0465 113e
00000100: 2a1e f1bd 0f3b 37be bef9 41be d240 ab3c
00000110: 900a 373e 0594 963e dd9f da3d aab1 1c3e
00000120: 0988 a93d 213f 89bd 262f aebd b132 f33b
00000130: 180e 0b3d dc51 c8be ebf0 2b3e 1d0c cdbe
00000140: 8721 5b3e 131e 94bd d3e5 85bd 5382 493e
00000150: 9139 a6bd 5a6b 903e d5d5 2c3d 5cf5 a9be
00000160: 8ff4 d03d bfef cbbe 3877 a53d df21 f5bc
00000170: 04d2 82bb 343f 263e 894a 5dbe ec2d 03bc
00000180: c2f0 b13d 6c85 753d 19a8 8fbd bf65 133f
00000190: 9a46 873e f5e1 debd ce2e 383f 03b7 9d3d
000001a0: a2d3 123e f7f1 ff3d 2fe4 bfbd 6d21 0abe
000001b0: 4dcb aa3d 19b8 673f c867 1d3e e02b d43d
000001c0: 237a d5be 9858 333e ed7f 9cbe 277d a2be
000001d0: c748 cfbd 809b a5bd 8314 dbbd 3fe7 9fbe
000001e0: 0770 263d 3d63 08be 2043 0ebf d9f6 043e
000001f0: a63e 0e3f 3ac6 84be 9aeb eb3d f122 dfbe
00000200: 2f57 c9be 5e37 93be 6b12 53be d34e 333e
00000210: 31ec 873e 3511 723e 0319 31bc 0b66 84be
00000220: 5824 90be b80c 5ebf 99fe 25be 49cc 283e
00000230: c860 643a 11c2 f93e 3164 2e3e cedc 943e
00000240: edb5 163e 6e8e 2a3d 025b 263a eede 24bf
00000250: 83ec d03e 2f39 d13d b96e 473d f2cb 1abe
00000260: f943 5cbe 8b0b acbd 3358 453e 2d93 633e
00000270: dde8 82bd 217c e5bd f2f4 9a3d 5915 ec3e
00000280: c0db b03d 2eff c83d 429c c9be fc6f 38be
00000290: 61e4 3d3e 133a bcbe cfc1 fe3e c74e 3c3e
000002a0: 423d 15bd f489 88be 0791 b53e 9d40 12bc
000002b0: c929 31be 27a9 fe3d 13c0 23be 81e2 8b3e
000002c0: d78c 82be 2d2a e83d 6a44 a8bd 9410 21bb
000002d0: e71a 933d bc44 d3bd 15d2 bcbe bdcf 473e
000002e0: f01a 063f a032 133e ff2e 2d3e 2d5f df3d
000002f0: 6d66 6e3e 87fb 2d3e bf23 dbbd 9ffc 1c3e
00000300: a92f ee3d 5eb9 98bd 6fb1 e63e 9114 983e
00000310: f196 1b3e 8e0f 02be ccc5 3e3e 16c9 32be
00000320: 49c1 0c3e 2b35 223e 4d85 00bd 3476 4a3e
00000330: 2359 60be e251 5d3d 2b33 d03d 4c36 72be
00000340: 5546 403d bf7a 563e c080 2abe a6eb 0a3e
00000350: 22b4 41bd 731b ee3d f5c3 9e3d c0ee 5fbe
00000360: 670d f03d 73c8 963d fcfe 823e 5a39 633e
00000370: 89f0 55be d542 5f3d 491d 843d f5c8 9dbe
00000380: ea35 97be 2d29 693e f834 6d3c 0b43 233d
00000390: 4359 8a3e c282 383e ecee 21be 5097 47bc
000003a0: 2203 b5bc 81dc a1bd b852 3b3d 167e 9bbd
000003b0: 420d b23d 920f d7bc 71ab dabd 1bde 033e
000003c0: 931b d4bd 5d9f 1c3e 5573 6e3e 72f1 b43d
000003d0: 27e5 2a3f 09e8 dbbd b4d3 6c3d 0066 0dbe
000003e0: f86d 2abe fdec 6e3e c325 98be 08bd cb3e
000003f0: 9b2f 9e3e f74f 2b3e 2274 893e 0220 3cbe

sequential_55_1/dense_314_1/BiasAdd/ReadVariableOp f4 [65]
0.10778658 0.024959607 0.0018495639 -0.0983574 0.04830157 0.107738554 0.044796236 0.105616674
0.085235514 0.061077923 -0.010608269 -0.06847462 0.045118768 0.06497052 0.0764536 -0.0014300492
-0.03594442 -0.2752892 0.036943935 0.06576207 0.04348625 0.08036408 0.056975204 -0.16306034
-0.084630445 0.0059265504 0.048825983 0.0646482 -0.0068786913 0.08244648 0.021104788 -0.00833607
0.049149808 0.023903625 0.098444514 0.07541395 -0.014474763 -0.042203814 -0.08181119 0.009547463
-0.017430432 0.06321566 -0.00019020216 0.09566203 0.09659423 0.013528094 -0.044730682 0.1110171
0.07076935 0.027850626 0.090977855 -0.038224246 0.056056693 0.0111976825 0.031887226 -0.0094828615
0.030951768 0.044436343 -0.06679392 -0.0530327 -0.21228223 -0.12969889 0.04832686 0.07466047
-0.12630177
00000000: 36bf dc3d 1778 cc3c 116d f23a 9b6f c9bd
00000010: ded7 453d 08a6 dc3d 427c 373d 8e4d d83d
00000020: f58f ae3d d82c 7a3d 4ece 2dbc 6c3c 8cbd
00000030: 75ce 383d 440f 853d b493 9c3d 7d70 bbba
00000040: 753a 13bd b5f2 8cbe 8652 173d 44ae 863d
00000050: a31e 323d ec95 a43d d55e 693d 4af9 26be
00000060: ba52 adbd 8233 c23b c1fd 473d 4766 843d
00000070: a566 e1bb b3d9 a83d f3e3 ac3c 0394 08bc
00000080: 4f51 493d 89d1 c33c 479d c93d a172 9a3d
00000090: 8e27 6dbc e8dd 2cbd a08c a7bd f66c 1c3c
000000a0: 44ca 8ebc 3677 813d 0171 47b9 74ea c33d
000000b0: 32d3 c53d f0a4 5d3c 8537 37bd ef5c e33d
000000c0: 85ef 903d ff26 e43c 9952 ba3d 0791 1cbd
000000d0: b49b 653d 7c76 373c 2e9c 023d 015e 1bbc
000000e0: 908e fd3c e202 363d 40cb 88bd d138 59bd
000000f0: 8360 59be c9cf 04be 63f2 453d 97e7 983d
00000100: 4055 01be

sequential_55_1/dense_315_1/BiasAdd/ReadVariableOp f4 [45]
0.12404736 -0.005446745 0.09876668 0.050790917 0.058948513 0.05947052 0.0066273464 -0.027196025
0.10242466 0.07264963 0.108621284 -0.0624056 0.050907873 -0.14605233 0.07360424 0.06073734
0.004774791 -0.038364626 -0.044433992 0.0020785048 -0.017821107 -0.003920121 0.091759 -0.24419807
0.12901069 0.08809569 0.044991367 0.075442225 0.07583414 0.10960888 -0.07047981 0.11212846
0.116585076 -0.07861238 0.020445472 0.012244959 -0.051369544 -0.011512557 -0.042631194 0.034053598
0.030474536 0.12702519 -0.03559771 -0.0786332 0.02624823
00000000: 8b0c fe3d 9c7a b2bb 2f46 ca3d 230a 503d
00000010: ff73 713d 5c97 733d 362a d93b 33ca debc
00000020: 05c4 d13d 54c9 943d d674 de3d 049d 7fbd
00000030: c684 503d be8e 15be d2bd 963d b8c7 783d
00000040: da75 9c3b 3a24 1dbd 6b00 36bd 8637 083b
00000050: 92fd 91bc 5c74 80bb 25ec bb3d 0f0f 7abe
00000060: 611b 043e 836b b43d de48 383d 7481 9a3d
00000070: ee4e 9b3d 9f7a e03d b857 90bd 9ba3 e53d
00000080: 28c4 ee3d 87ff a0bd 437d a73c 159f 483c
00000090: df68 52bd 2a9f 3cbc 0c9e 2ebd c97b 0b3d
000000a0: bca5 f93c e412 023e e8ce 11bd 710a a1bd
000000b0: 8706 d73c

sequential_55_1/dense_316_1/BiasAdd/ReadVariableOp f4 [35]
-0.12847976 0.0895426 0.047456086 0.024067108 0.0 -0.035279192 0.02346155 0.019125411
0.03127876 -0.03719111 0.005538826 0.05867383 0.14339958 0.15011634 0.082416646 0.07885234
0.09586015 -0.113385096 -0.019990599 0.0 -0.09886108 -0.055397306 -0.03794194 -0.032227296
0.13293576 0.12643807 -0.06881247 -0.015674023 -0.13957737 0.03208982 -0.069956996 0.107716255
0.081894584 -0.042926412 0.19926211
00000000: 3390 03be 1c62 b73d 5061 423d 6228 c53c
00000010: 0000 0000 ea80 10bd 7032 c03c e5ac 9c3c
00000020: 281e 003d b555 18bd 0a7f b53b f853 703d
00000030: 57d7 123e 19b8 193e 0fca a83d 567d a13d
00000040: 5452 c43d 7236 e8bd 53c3 a3bc 0000 0000
00000050: ae77 cabd 49e8 62bd 0269 1bbd c500 04bd
00000060: 5020 083e fb78 013e 8ded 8cbd cf66 80bc
00000070: 5fed 0ebe 9d70 033d 9d45 8fbd 579a dc3d
00000080: 59b8 a73d 9bd3 2fbd 5e0b 4c3e

sequential_55_1/dense_317_1/BiasAdd/ReadVariableOp f4 [25]
0.02226868 -0.0016669492 0.09996264 0.10186201 -0.02514297 0.060182888 0.13968356 0.0
0.010508712 0.13453688 -0.064019695 0.021192767 0.012181976 0.08234034 -0.09666855 -0.017535504
0.031869095 0.17305957 0.0 0.23912294 -0.014010062 -0.09810706 -0.0125109805 -0.28301543
0.016330732
00000000: cf6c b63c 897d daba 36b9 cc3d 089d d03d
00000010: a1f8 cdbc 5582 763d 3509 0f3e 0000 0000
00000020: bc2c 2c3c 09c4 093e c21c 83bd 749c ad3c
00000030: e996 473c 0da2 a83d 29fa c5bd 9ea6 8fbc
00000040: 2b89 023d 8736 313e 0000 0000 a5dc 743e
00000050: 768a 65bc 5bec c8bd dbfa 4cbc 66e7 90be
00000060: 07c8 853c

sequential_55_1/dense_318_1/BiasAdd/ReadVariableOp f4 [15]
0.0009844911 0.21064055 -0.037309494 -0.005243901 0.12344015 -0.037060756 -0.0060011744 0.03452685
0.015014694 0.1245166 0.03284158 0.0023780446 0.20613436 -0.020119464 0.05396658
00000000: 0a0a 813a 28b2 573e d7d1 18bd 08d5 abbb
00000010: 30ce fc3d 05cd 17bd 80a5 c4bb 076c 0d3d
00000020: 3100 763c 8f02 ff3d e584 063d f8d8 1b3b
00000030: e314 533e 93d1 a4bc 100c 5d3d

sequential_55_1/dense_319_1/BiasAdd/ReadVariableOp f4 [10]
0.25466838 0.06809332 0.10312701 0.1917459 0.6015296 -0.39621496 0.23721917 -0.2230498
0.025678657 -0.06638912
00000000: e563 823e 8374 8b3d 4134 d33d 0a59 443e
00000010: d8fd 193f b0dc cabe 95e9 723e 2b67 64be
00000020: 0c5c d23c 05f7 87bd

sequential_55_1/dense_320_1/BiasAdd/ReadVariableOp f4 [6]
0.3349833 -0.8092444 -0.08723569 -0.48988733 0.09657141 0.7562514
00000000: ee82 ab3e a42a 4fbf a0a8 b2bd 83d2 fabe
00000010: 3bc7 c53d b199 413f

sequential_55_1/dense_313_1/MatMul;sequential_55_1/dense_313_1/Relu;sequential_55_1/dense_313_1/BiasAdd f4 [85]
0.01543394 -0.10412516 0.043163203 0.042419445 0.056485757 -0.097967364 -0.03189951 -0.06953241
-0.08745674 -0.052028462 -0.13731341 0.06916973 0.05355132 0.018426176 -0.13621747 0.046843514
-0.014096895 0.09702181 -0.11124156 0.01334464 -0.026256293 -0.02557007 0.11117069 -0.007430194
-0.22395313 0.04551711 -0.022018198 0.03066848 -0.053466536 -0.12878768 -0.031153427 0.072147794
-0.025677508 0.007391846 0.08624167 0.105717294 -0.0409429 -0.062644444 0.07950715 0.057639852
0.058855228 -0.015504332 -0.00077599817 -0.045068137 -0.025080116 0.08047214 -0.0080472035 0.08898158
-0.10560707 0.007855639 0.009332833 0.021742616 -0.08422884 -0.0345491 0.09114969 -0.13029173
0.06513757 0.037005603 0.04476251 -0.020816037 0.018564876 0.04946258 -0.08113067 -0.016170906
-0.07592918 0.045556642 -0.026082871 0.09341507 -0.018569656 0.06614177 -0.029942172 0.008782161
-0.01021979 0.0027488375 0.011420536 -0.012160355 9.469996e-05 -0.23292544 0.0046889805 -0.17139243
0.05610447 0.16895716 -0.034432415 0.12459365 0.001750252
00000000: a3de 7c3c 923f d5bd e6cb 303d 03c0 2d3d
00000010: 9c5d 673d 1da3 c8bd 10a9 02bd 0267 8ebd
00000020: 851c b3bd cc1b 55bd e39b 0cbe dca8 8d3d
00000030: a158 5b3d 7ef2 963c 987c 0bbe fcde 3f3d
00000040: aaf6 66bc 5fb3 c63d 9dd2 e3bd 7aa3 5a3c
00000050: 7017 d7bc 5378 d1bc 75ad e33d fc78 f3bb
00000060: f853 65be 2670 3a3d 825f b4bc 773c fb3c
00000070: baff 5abd ebe0 03be 7935 ffbc 39c2 933d
00000080: a359 d2bc 4c37 f23b 799f b03d 4f82 d83d
00000090: beb3 27bd bb4b 80bd a5d4 a23d c417 6c3d
000000a0: 2e12 713d e205 7ebc 5b6c 4bba 5e99 38bd
000000b0: d174 cdbc 94ce a43d 6bd8 03bc fa3b b63d
000000c0: 8548 d8bd f0b4 003c bde8 183c 921d b23c
000000d0: 2c80 acbd 5b83 0dbd b0ac ba3d 326b 05be
000000e0: d966 853d 3093 173d e558 373d 6586 aabc
000000f0: 5e15 983c 4699 4a3d d627 a6bd d978 84bc
00000100: c280 9bbd 9a99 3a3d bfab d5bc 6650 bf3d
00000110: 641f 98bc 5675 873d 4949 f5bc 0ee3 0f3c
00000120: e870 27bc d725 343b 331d 3b3c 3a3c 47bc
00000130: a799 c638 0284 6ebe 05a6 993b 7f81 2fbe
00000140: cdcd 653d 1b03 2d3e 0109 0dbd f52a ff3d
00000150: b668 e53a

sequential_55_1/Normalization_1/mul;sequential_55_1/Normalization_1/add;sequential_55_1/dense_313_1/MatMul;sequential_55_1/dense_313_1/Relu;sequential_55_1/dense_313_1/BiasAdd f4 [85, 51]
-0.0025597273 -0.001883845 -0.0009366968 0.0024996828 -0.0013612823 -0.00032681195 -8.120349e-05 0.00023912478
0.00049137964 0.0021345264 -0.001826518 0.00066894165 -0.00075066485 -0.00022567256 0.00030106326 -0.002045073
-0.0003913 0.00011428161 0.00067129504 0.00013875971 0.0016855288 -0.0010576037 0.0002668195 -0.0012559836
5.2282936e-05 0.000365462 -0.00073280494 0.0017119386 0.00015511081 0.0019120086 -0.0008274941 -0.0016990001
0.0032968617 0.0022159978 -0.0050407625 -0.0019160971 0.0028644218 -0.003447132 -0.0064517143 0.0071126795
-0.0012801571 0.004152103 0.0051120436 0.002516401 0.0026409663 -0.007978234 0.0018654885 0.006063468
-0.0011367026 -0.0016449463 -0.012003946 3.7049016e-05 -0.0006809917 -0.0008423873 0.0013038949 -4.1866937e-05
0.00037518333 0.0007638959 -0.0011438718 -0.0001655978 0.0015628878 -0.00026523345 6.712445e-05 0.0006628111
0.0009779623 0.0011958726 -0.0012133038 0.0006807351 0.0008797245 0.0007319653 6.4297434e-05 0.0013002374
2.9115809e-05 -3.9197967e-05 -0.0012152386 -0.00032509348 -0.0016747909 0.0001870287 -0.00033648903 -0.0025329376
0.0021854087 0.002288356 -0.00024577996 0.00062573946 -0.0027584494 0.0011441155 0.0031264753 0.0020536107
0.007463641 -0.0013843373 -0.003507313 -0.0028638004 0.004127101 -0.004828397 0.004839532 0.0023382858
0.00028221018 -0.0056153997 0.00587391 -0.0058936835 0.006979035 0.005264596 0.0006855183 0.00025152758
0.0014825872 -0.00040524392 -0.00035973277 0.0010004215 0.00035980027 -0.00032722254 0.0003810048 -0.0006092082
-0.0002530433 0.00030513815 -0.00021444344 -0.0017758107 9.935653e-05 -0.0019532419 0.000797121 -0.00014660956
-0.00036051185 0.0010060625 -0.0009752557 -0.0024984686 -0.00015289192 0.00029768492 -0.00034430533 0.0007293778
-0.0005219128 0.0014586468 -0.00097602425 -0.0021328325 0.0028360598 -0.0006835796 -0.0022158995 -0.00172041
-0.007963056 -0.0039357888 0.0033192718 0.002652083 0.00315392 0.0019773953 -0.00573045 -0.0069588004
0.0037106264 0.009770921 -0.0033223177 0.0058467207 0.00572208 0.0039709527 -0.0035348432 0.004016199
-0.004481573 -0.0031105983 -0.0015590551 -0.00058601797 -0.0005541304 8.262577e-05 0.00032822884 -3.6044265e-05
-2.1959218e-05 -0.0019548757 0.00015113897 -0.0016263337 0.0013250015 -0.00040987725 -8.042241e-05 -0.0008631871
0.0020042353 0.0011234621 0.0014698398 0.0016256659 0.004831824 0.0021582583 0.0023313346 0.0018776167
0.0025906686 0.001209508 0.00073793397 0.0025493116 0.000850627 0.0034953274 0.00021989495 0.00080271123
-4.3263986e-05 0.0040878667 -0.0014107513 0.00054385094 -0.0011180892 0.0012334115 0.003653065 -0.0091525335
-0.0073092584 0.0017765544 0.0017566605 -0.009937176 0.001549785 -0.008712092 -0.018556109 -0.008698969
-0.010209607 0.00045956366 -0.018862719 -0.004108453 -0.0015843054 0.0015975827 -0.0002234574 -0.00024089338
-0.0010227748 0.0009331909 0.00028486198 -0.001637188 0.0010921512 0.0011398237 -0.00094582076 0.00033631973
0.002272309 0.00050044636 0.0014829346 0.0022447468 -0.00011215524 0.0013768659 -0.00022359281 -0.0011584031
-0.001289602 -0.0020255602 0.000820713 -0.00025918178 -0.00020518644 -0.0013705717 -0.001282146 -0.0026753708
-0.0020989932 0.0009843484 0.0015943212 -0.0010370499 0.0023262992 -0.0019592498 -0.003019564 -0.0044431854
-0.0007828895 -0.007110729 -0.0059210793 0.005685138 -0.0065997103 -0.0076490366 0.007422296 0.0029856793
0.0024700582 -0.0014057687 0.00823303 -0.0015835443 -0.0062382803 0.003349747 -0.010798121 0.002004203
00000000: 19c1 27bb 59eb f6ba a88c 75ba b8d1 233b
00000010: 0e6d b2ba f557 abb9 cb4b aab8 92bd 7a39
00000020: eecf 003a 69e3 0b3b c667 efba ea5b 2f3a
00000030: 44c8 44ba 84a2 6cb9 07d8 9d39 a206 06bb
00000040: 6627 cdb9 79aa ef38 d9f9 2f3a 0780 1139
00000050: f6ec dc3a 4b9f 8aba e8e3 8b39 d19f a4ba
00000060: 604a 5b38 7b9b bf39 b519 40ba 2163 e03a
00000070: 3ea5 2239 5d9c fa3a 30ec 58ba fcb0 deba
00000080: 2910 583b 463a 113b fb2c a5bb 8d25 fbba
00000090: 06b9 3b3b 47e9 61bb e768 d3bb 7b11 e93b
000000a0: f2ca a7ba 5d0e 883b ee82 a73b 34ea 243b
000000b0: 1014 2d3b 24b7 02bc 6883 f43a 0eb0 c63b
000000c0: 69fd 94ba 3d9b d7ba 33ac 44bc 1465 1b38
000000d0: 9484 32ba a8d3 5cba 74e7 aa3a 489a 2fb8
000000e0: 41b4 c439 3040 483a f8ed 95ba 52a4 2db9
000000f0: d0d9 cc3a 080f 8bb9 2ac5 8c38 80c0 2d3a
00000100: f82e 803a d3be 9c3a b807 9fba 5c73 323a
00000110: 509d 663a 5ce1 3f3a 6cd7 8638 ba6c aa3a
00000120: b93d f437 7f68 24b8 a448 9fba 4f71 aab9
00000130: a884 dbba 221d 4439 cb6a b0b9 a4ff 25bb
00000140: 1339 0f3b 3ef8 153b 07dc 80b9 aa08 243a
00000150: 1ac7 34bb 25f6 953a 8de5 4c3b df95 063b
00000160: 8f91 f43b a772 b5ba f3da 65bb 99ae 3bbb
00000170: a23c 873b 8837 9ebb f094 9e3b ed3d 193b
00000180: 9cf5 9339 6301 b8bb ee79 c03b cd1f c1bb
00000190: 64b0 e43b a282 ac3b 5bb4 333a 76df 8339
000001a0: 5f53 c23a eb76 d4b9 849a bcb9 9320 833a
000001b0: 93a3 bc39 118f abb9 99c1 c739 45b3 1fba
000001c0: e6aa 84b9 f3fa 9f39 39dc 60b9 52c2 e8ba
000001d0: a25d d038 f601 00bb e3f5 503a 34bb 19b9
000001e0: 1503 bdb9 dbdd 833a 4da8 7fba 59bd 23bb
000001f0: 9d51 20b9 9812 9c39 e183 b4b9 b733 3f3a
00000200: fad0 08ba 1130 bf3a e1db 7fba fec6 0bbb
00000210: 30dd 393b 4032 33ba a038 11bb 617f e1ba
00000220: 7a77 02bc caf7 80bb 2488 593b 92ce 2d3b
00000230: ffb1 4e3b 3097 013b 80c6 bbbb a606 e4bb
00000240: fb2d 733b 3716 203c 3ebb 59bb d995 bf3b
00000250: 4980 bb3b c41e 823b d4a8 67bb 529a 833b
00000260: 29da 92bb 2edb 4bbb 3559 ccba 009f 19ba
00000270: 1043 11ba 5f47 ad38 2116 ac39 3c2e 17b8
00000280: 1035 b8b7 5f1d 00bb 0f7b 1e39 b42a d5ba
00000290: acab ad3a cbe4 d6b9 74a8 a8b8 8147 62ba
000002a0: 7d59 033b 2241 933a a4a7 c03a 4c14 d53a
000002b0: 4754 9e3b 9171 0d3b 4ec9 183b 5d1a f63a
000002c0: 35c8 293b 5b88 9e3a e971 413a 5a12 273b
000002d0: 9dfc 5e3a dd11 653b 9a93 6639 0a6d 523a
000002e0: 5a76 35b8 83f3 853b f5e8 b8ba 3891 0e3a
000002f0: d98c 92ba 6caa a13a 4368 6f3b 82f4 15bc
00000300: 8182 efbb 46db e83a bf3f e63a 89cf 22bc
00000310: 2822 cb3a 2abd 0ebc fb02 98bc 1f86 0ebc
00000320: 3246 27bc 97f1 f039 fd85 9abc 34a0 86bb
00000330: 78a8 cfba fb65 d13a e44f 6ab9 5398 7cb9
00000340: a10e 86ba 62a1 743a 8759 9539 ea96 d6ba
00000350: 8326 8f3a 2366 953a f5f0 77ba 1254 b039
00000360: 05eb 143b 6330 033a 075f c23a 9a1c 133b
00000370: e334 ebb8 f477 b43a 3d74 6ab9 8fd5 97ba
00000380: dd07 a9ba 43bf 04bb 1e25 573a cae2 87b9
00000390: 5127 57b9 c1a4 b3ba ae0d a8ba 4655 2fbb
000003a0: 438f 09bb 4005 813a 8bf8 d03a 9fed 87ba
000003b0: d374 183b c266 00bb e1e3 45bb 2498 91bb
000003c0: d33a 4dba 1e01 e9bb 9d05 c2bb 654a ba3b
000003d0: 6242 d8bb c5a4 fabb bb36 f33b 63ab 433b
000003e0: b3e0 213b c541 b8ba d5e3 063c ee8e cfba
000003f0: 7d6a ccbb 6e87 5b3b 9aea 30bc f258 033b
