modeling/tabular/add_scale_win5_lab50_acc95.tflite (tflite, 20944 bytes, 6 tensors)

arith.constant f4 [6, 22]
0	0xbf6813c1	-0.9065514
1	0x3eb84f13	0.3599783
2	0xbde61683	-0.112347625
3	0x3e858aa3	0.26082334
4	0x3e9ef4c2	0.3104611
5	0xbf45a9f0	-0.7721243
6	0xbda7b17f	-0.081881516
7	0x3efa8c8c	0.48935354
8	0x3f025d1c	0.50923324
9	0xbe2f24f5	-0.17103942
10	0xbe84543f	-0.25845525
11	0x3d959db4	0.0730547
12	0x3ed35a6e	0.4127993
13	0x3ed2b126	0.4115078
14	0x3bfefd05	0.007781627
15	0x3ebe6e44	0.371935
16	0xbe73cef1	-0.2380941
17	0xbf53b80e	-0.8270272
18	0xbf7237b7	-0.94616264
19	0xbc9339fc	-0.017971985
20	0x3e01ccaf	0.12675737
21	0x3cc65ad2	0.024213228
22	0xbf39d209	-0.72586113
23	0xbe9bf70d	-0.30461922
24	0xbf33a0e4	-0.70167375
25	0xbe58a6c9	-0.21157373
26	0x3e6e4348	0.23267853
27	0xbde1079d	-0.1098778
28	0x3e98fb0d	0.29879037
29	0xbe82b36e	-0.2552752
30	0xbf8ea1cd	-1.1143128
31	0x3edd6440	0.43240547
32	0x3ee5ad58	0.44858813
33	0x3e563b84	0.20921141
34	0xbed67e75	-0.41893354
35	0xbe9fcf06	-0.31212634
36	0xbdb57d27	-0.088617615
37	0xbed781b8	-0.42091155
38	0x3f044bd1	0.51678187
39	0xbf00939a	-0.5022522
40	0xbf2fb640	-0.68637466
41	0xbee99c7e	-0.45627207
42	0x3ed32b7c	0.41244113
43	0xbcc9c76f	-0.02463123
44	0x3eaf246c	0.34207475
45	0xbe7228a1	-0.23648311
46	0x3f3c6cb7	0.73603386
47	0xbfa04c01	-1.2523195
48	0xbea2598c	-0.31708944
49	0x3fa19c83	1.2625889
50	0x3ef94ba6	0.48690528
51	0x3f535ba7	0.82561725
52	0x3f42ac9f	0.7604465
53	0x3d0e1d9a	0.0346962
54	0xbeb5c445	-0.35501304
55	0xbf30c023	-0.6904318
56	0x3e7524fd	0.23939891
57	0xbdb3d8dc	-0.08781597
58	0xbf213aab	-0.62980145
59	0xbefa9ebc	-0.4894923
60	0x3dcca031	0.099914916
61	0x3f1db5ba	0.6160542
62	0x3f1789c8	0.5919461
63	0xbedc84b4	-0.43069994
64	0xbe9ac234	-0.3022629
65	0xbed93b25	-0.42427936
66	0xbf0e3bf8	-0.55560255
67	0xbf66cdc0	-0.901577
68	0x3e30d092	0.17267063
69	0xbf0dda50	-0.55411243
70	0x3ec1a15f	0.3781843
71	0xbe236f13	-0.1596034
72	0xbf828a0c	-1.0198379
73	0x3e576d5f	0.21037816
74	0xbf7e3e2d	-0.9931362
75	0xbeaab49d	-0.33340922
76	0x3f1958ba	0.5990101
77	0xbeb9a877	-0.3626134
78	0xbf52dee3	-0.8237135
79	0xbe8397d8	-0.25701785
80	0x3e51eaf4	0.20499784
81	0x3d814f3c	0.06313941
82	0xbe33c96f	-0.1755731
83	0xbd8bbe6b	-0.06823429
84	0xbf0d259c	-0.5513551
85	0x3e6fb15f	0.23407505
86	0x3cb9de78	0.02268909
87	0x3f081acf	0.53165907
88	0xbd3a16b2	-0.0454318
89	0x3f44e722	0.7691518
90	0x3b859e13	0.004077682
91	0xbd6bd2e2	-0.05757416
92	0xbf594f90	-0.8488703
93	0xbf9b437a	-1.2129967
94	0x3eef8ff5	0.46789518
95	0x3f1d9077	0.6154856
96	0xbf19434c	-0.5986831
97	0xbf1a495d	-0.60268193
98	0xbde3cf72	-0.111235514
99	0xbed15319	-0.4088371
100	0x3e473690	0.19454408
101	0xbe803746	-0.2504217
102	0xbca547dd	-0.020175869
103	0x3e2712af	0.16315721
104	0xbf3070a5	-0.6892188
105	0x3f1d01f4	0.61331105
106	0x3e7edad1	0.2488816
107	0x3e0eecd0	0.13957524
108	0xbf245ab6	-0.64200914
109	0x3f30fbb1	0.6913405
110	0x3f597ad6	0.8495306
111	0xbf27f0da	-0.65601885
112	0xbdb22e9a	-0.08700295
113	0x3e5680b5	0.20947535
114	0x3d81fd2b	0.06347116
115	0xbeba9328	-0.36440396
116	0xbdff575c	-0.12467834
117	0xbf57f4f5	-0.8435815
118	0xbe1f35d3	-0.15547876
119	0x3ed7ae7e	0.42125314
120	0xbec66a3e	-0.3875293
121	0x3f0f9554	0.5608723
122	0x3d9c04cb	0.07618102
123	0x3e5c76fc	0.21529764
124	0xbe0f7d90	-0.14012742
125	0x3cd18747	0.0255772
126	0xbf0a8541	-0.5410958
127	0x3ee5c0d8	0.4487369
128	0x3f43571b	0.7630479
129	0x3ec78c7c	0.3897437
130	0x3eb9ab4e	0.36263508
131	0xbf31175c	-0.6917627

arith.constant1 f4 [22, 30]
0	0xbeeb5f16	-0.45970982
1	0xbe312a73	-0.1730135
2	0x3dd3d15a	0.10342665
3	0x3eb71476	0.35757798
4	0x3d0f185e	0.034935348
5	0x3dab8c3f	0.08376359
6	0xbefd1c42	-0.49435622
7	0xbdcdd9c1	-0.10051299
8	0xbf296bae	-0.6617993
9	0x3eabd2c5	0.33559242
10	0x3eb0df1a	0.34545213
11	0x3d62db6a	0.05538503
12	0xbea84620	-0.32866
13	0xbc3b0a5b	-0.011416043
14	0xbf355b09	-0.70842034
15	0x3f252057	0.6450247
16	0x3e47c766	0.19509658
17	0xbd3d8ddb	-0.046277862
18	0x3dce87fb	0.1008453
19	0xbe2e9e1d	-0.17052503
20	0xbc27986e	-0.010229213
21	0x3f75c64f	0.9600572
22	0x3caf264a	0.021380562
23	0xbd8384d8	-0.06421822
24	0x3e606c01	0.219162
25	0xbd1b8a8d	-0.03797393
26	0x3ea3be41	0.3198109
27	0xbe0e2e37	-0.13884817
28	0x3e8c3a1d	0.27388087
29	0x3ef664f6	0.48123902
30	0x3e2146b0	0.15749621
31	0x3e24f443	0.16108803
32	0x3ebd4eea	0.3697427
33	0x3ebe7c05	0.37203994
34	0xbee5c87e	-0.44879526
35	0xbe0b1d2d	-0.13585348
36	0x3ecc9125	0.39954486
37	0xbf3313ec	-0.69952273
38	0xbe41bc05	-0.1891938
39	0x3d96c8f2	0.07362546
40	0x3f32c8b4	0.698375
41	0xbec4f526	-0.38468283
42	0xbec7606c	-0.38940752
43	0x3dde85e7	0.108653836
44	0xbe8643db	-0.26223645
45	0xbdf3be75	-0.11901561
46	0xbe9999de	-0.30000204
47	0xbe3b63c6	-0.1829978
48	0x3e8fe6db	0.28105816
49	0x3e1e4f09	0.15459837
50	0x3e8ff91a	0.28119737
51	0xbedfdae1	-0.4372168
52	0x3ebf767a	0.37395078
53	0xbf1e9837	-0.6195101
54	0xbe0548de	-0.13016078
55	0x3e836a02	0.25666815
56	0x3ea486bc	0.32134044
57	0x3e02c43f	0.12770174
58	0x3e8b34b3	0.27188644
59	0x3ee03cfa	0.4379652
60	0x3ea18f44	0.31554615
61	0x3e60f857	0.21969734
62	0x3ef44961	0.47712234
63	0x3bf810f7	0.0075703817
64	0x3e57c4bb	0.2107114
65	0xbde72146	-0.11285643
66	0x3d1a5a0d	0.037683535
67	0x3f0ed8ec	0.55799747
68	0x3ecdd624	0.4020244
69	0x3ed6ba82	0.4193917
70	0x3dbcb542	0.0921426
71	0xbe0e6ab7	-0.13907896
72	0xbe47bbae	-0.19505188
73	0xbdebdb35	-0.1151642
74	0x3eb06565	0.34452358
75	0xbe830cd5	-0.25595728
76	0xbf106595	-0.56405
77	0x3e87c0df	0.26514336
78	0xbe8dd562	-0.2770186
79	0xbd125e8f	-0.03573471
80	0x3e07caf0	0.13261008
81	0x3ef90985	0.48640075
82	0xbe8b3cc2	-0.27194792
83	0x3e9d7e15	0.30760255
84	0x3d173e64	0.036924735
85	0xbcb05c14	-0.021528281
86	0x3e862d23	0.26206312
87	0xbdfed094	-0.12442127
88	0xbe146d03	-0.1449471
89	0x3e425895	0.18979104
90	0xbee2270e	-0.4417042
91	0x3e4edd3a	0.20201579
92	0x3d9f7250	0.07785475
93	0x3d90a949	0.070635386
94	0xbf5e0e95	-0.86741
95	0x3f07ceb3	0.5304977
96	0x3e4d1f25	0.20031412
97	0xbe92ac2f	-0.2864699
98	0xbeceb81b	-0.40374836
99	0x3da9b51e	0.082864985
100	0x3ea0e1f1	0.3142238
101	0xbf66ae21	-0.9010945
102	0xbda9cadb	-0.08290645
103	0x3f015b51	0.5052996
104	0xbe49d988	-0.19711888
105	0x3e93c200	0.28858948
106	0xbe2c8e55	-0.1685117
107	0x3d971106	0.07376294
108	0xbbca2355	-0.0061687627
109	0x3e4ee21d	0.20203443
110	0x3f1f629a	0.6225983
111	0x3e873a94	0.2641188
112	0x3dc7fa62	0.097645536
113	0xbefcbfbf	-0.4936504
114	0x3eafa1da	0.3430317
115	0xbdacafe9	-0.0843199
116	0x3e8f29b7	0.27961513
117	0xbd015c20	-0.031581998
118	0x3dfa3d22	0.122186914
119	0x3def94fa	0.11698337
120	0xbe01420f	-0.12622856
121	0x3e037cab	0.12840526
122	0x3e9e8e14	0.30967772
123	0xbe63002c	-0.22168034
124	0xbd2fe043	-0.042938482
125	0x3e8a75a7	0.27042887
126	0x3e76e15d	0.24109407
127	0xbd5cc134	-0.05389519
128	0x3e60eb24	0.21964699
129	0xbe950007	-0.29101583
130	0x3dbb94d7	0.09159248
131	0xbf003a6c	-0.50089145
132	0x3dc612cd	0.09671555
133	0x3ed72764	0.4202224
134	0x3ea6dd8f	0.3259091
135	0xbd36ac6c	-0.044598028
136	0x3f35bf76	0.7099527
137	0x3effc1d2	0.4995256
138	0x3e9830ed	0.29724827
139	0x3c2fecbf	0.010737597
140	0xba2e120a	-0.0006640261
141	0x3ec97fad	0.3935522
142	0x3e7054c4	0.23469836
143	0xbe9110f6	-0.28333253
144	0x3e87ef86	0.2654993
145	0xbe813401	-0.25234988
146	0xbf0a74b8	-0.5408435
147	0x3e02d03f	0.12774752
148	0xbe177b77	-0.14793192
149	0xbe94852f	-0.2900786
150	0xbe891eff	-0.2678146
151	0xbe87c121	-0.26514533
152	0xbe6e0634	-0.23244554
153	0x3f17a442	0.5923501
154	0xbe77197f	-0.2413082
155	0xbeef61bb	-0.4675425
156	0xbef9a60d	-0.487595
157	0x3d473331	0.048632804
158	0xbeb4a14c	-0.3527931
159	0x3f8abb1a	1.0838349
160	0x3e88af25	0.26696125
161	0xbe66a3d2	-0.2252343
162	0xbe3be17d	-0.18347736
163	0x3f1d98b0	0.6156111
164	0x3dce4e55	0.100735344
165	0xbf77a4e6	-0.9673599
166	0xbef5fdcc	-0.48045194
167	0x3ef776b7	0.4833276
168	0xbf34cc2b	-0.70624036
169	0x3ed50d30	0.41611624
170	0x3f8884cb	1.0665525
171	0x3f4f6d44	0.810261
172	0xbf107d53	-0.5644123
173	0x3f233461	0.637518
174	0xbec94e30	-0.39317465
175	0xbdda1232	-0.10648002
176	0xbf05e81f	-0.52307314
177	0xbe97accc	-0.2962402
178	0xbf369ce4	-0.71333146
179	0x3ebf0f7c	0.373165
180	0x3e93e736	0.28887337
181	0xbe37d4ac	-0.17952222
182	0x3e3f2bd6	0.18669066
183	0x3ef9141d	0.48648158
184	0x3e509c33	0.20372085
185	0xbe78ee48	-0.24309647
186	0x3eb7fd20	0.35935307
187	0xbee9ee51	-0.45689633
188	0xbea80c89	-0.32822064
189	0x3f27913c	0.65455985
190	0x3ef3ebfe	0.47640985
191	0x3ec06d86	0.3758356
192	0xbd8a5c2e	-0.06755863
193	0xbf16f4f3	-0.5896751
194	0xbdd79f22	-0.10528399
195	0xbe8cc1a3	-0.27491483
196	0x3ee02a2f	0.43782184
197	0xbe074563	-0.13210063
198	0x3e9f1b04	0.310753
199	0x3edfc1cc	0.43702543
200	0xbd51b4e2	-0.051197894
201	0x3c4d92bb	0.01254719
202	0xbea8f0e0	-0.32996273
203	0xbe82c9be	-0.25544542
204	0x3d20aa02	0.039224632
205	0x3e59c2be	0.21265694
206	0x3e2be9a6	0.16788349
207	0x3e68cd7c	0.22734636
208	0xbe24b8c9	-0.16086115
209	0x3f2593bc	0.6467855
210	0x3dfaddc3	0.12249329
211	0x3d7efbf9	0.06225202
212	0xbd971841	-0.07377673
213	0x3dba2ee3	0.09090974
214	0xbe4ef556	-0.20210776
215	0x3d5404f5	0.05176254
216	0x3e91956a	0.28434306
217	0xbe12545f	-0.14289998
218	0x3ea3f176	0.32020158
219	0xbb9ab347	-0.0047210786
220	0x3eddb92f	0.43305346
221	0x3d1244cc	0.03571014
222	0xbef34d20	-0.4751978
223	0x3e42c183	0.19019131
224	0x3e13f9ac	0.14450711
225	0xbeb0a8de	-0.34503835
226	0xbeda9985	-0.4269525
227	0xba0a37a5	-0.0005272574
228	0xbd4ba939	-0.04972193
229	0xbe83a077	-0.25708362
230	0x3edf047c	0.4355811
231	0xbddbeb39	-0.107382245
232	0x3e42f97b	0.19040482
233	0x3e537eee	0.20653889
234	0xbb1dfd74	-0.0024107369
235	0x3de3aa4c	0.11116466
236	0xbe52a95d	-0.2057242
237	0x3e2ce198	0.16882932
238	0xbe34f649	-0.17672075
239	0x3f177e28	0.59176874
240	0xbea06387	-0.31325933
241	0xbe1961d3	-0.14978723
242	0x3e317ee3	0.1733356
243	0x3e8f6dfd	0.28013602
244	0xbf059219	-0.5217605
245	0x3e7e1780	0.24813652
246	0x3e2fbaf1	0.17161156
247	0xbeee3108	-0.46521783
248	0x3ecd8419	0.40139845
249	0x3f3f0878	0.746223
250	0x3e30f342	0.17280295
251	0xbeacb77c	-0.33733737
252	0xbeec2069	-0.46118477
253	0x3f26a71b	0.6509873
254	0xbe95cc4e	-0.29257435
255	0xbc45477b	-0.012040968

sequential_1_1/dense_4_1/BiasAdd/ReadVariableOp f4 [22]
0	0x3e06865f	0.13137196
1	0x3e922dc9	0.28550556
2	0x3e8570de	0.26062673
3	0xbd8dd396	-0.069251224
4	0xbe3cb67c	-0.18428987
5	0x3ecabf2f	0.39598987
6	0x3eaffc76	0.343723
7	0x3ea33861	0.3187895
8	0x3e936b4e	0.28792804
9	0xbd8ef709	-0.06980712
10	0xbdafe2a6	-0.08588152
11	0xbda90a46	-0.08253913
12	0x3ebf1499	0.37320402
13	0x00000000	0.0
14	0xbd568a97	-0.052378263
15	0xbdb3fb73	-0.087881945
16	0xbd475cbc	-0.048672423
17	0x3e4a0c3a	0.19731227
18	0x3e9c4f3d	0.30529204
19	0xba40efc8	-0.0007359949
20	0xbe2c23ae	-0.16810486
21	0x3d84f54c	0.06492099

sequential_1_1/dense_5_1/BiasAdd/ReadVariableOp f4 [6]
0	0xbc4b14e6	-0.012395119
1	0xbda7d27b	-0.08194443
2	0x3e5ecfa4	0.21758896
3	0xbe522c9f	-0.20524834
4	0x3e4d9c35	0.2007912
5	0xbddfaf86	-0.1092215

sequential_1_1/dense_3_1/MatMul;sequential_1_1/dense_3_1/Relu;sequential_1_1/dense_3_1/BiasAdd f4 [30]
0	0x3d59d946	0.053185724
1	0xbd2fe7a4	-0.04294552
2	0xbc84e7e2	-0.016223852
3	0x3f0b7fa1	0.5449162
4	0xbe6f975b	-0.23397581
5	0xbdd64470	-0.10462272
6	0x3e24572c	0.16048878
7	0xbe48a30f	-0.19593452
8	0xbe2cf78c	-0.16891307
9	0x3f02ba17	0.510652
10	0x3ebe0c67	0.37118837
11	0xbd897aae	-0.067128524
12	0xbe517e06	-0.2045823
13	0x3e4dbf09	0.20092405
14	0xbda7a9a9	-0.08186657
15	0x3d107f6d	0.035277773
16	0xbe24c0e0	-0.16089201
17	0x3e3abd87	0.18236361
18	0xbd4753e3	-0.048663985
19	0x3dd727f9	0.10505671
20	0x3e419b8b	0.18906991
21	0x3ea82b57	0.32845566
22	0xbcd8fa8e	-0.026486661
23	0xbda1f678	-0.07908338
24	0xbc7f2d36	-0.015574744
25	0xbc842924	-0.016132899
26	0x3dc5239f	0.09625935
27	0xbbc0725e	-0.0058730086
28	0xbc074842	-0.008256974
29	0x3ed97a00	0.4247589

sequential_1_1/Normalization_1/mul;sequential_1_1/Normalization_1/add;sequential_1_1/dense_3_1/MatMul;sequential_1_1/dense_3_1/Relu;sequential_1_1/dense_3_1/BiasAdd f4 [30, 126]
0	0xba5ff24b	-0.00085428794
1	0xb9806053	-0.0002448583
2	0xb9045442	-0.0001261989
3	0x3af556e3	0.0018717911
4	0x3aa9fbf4	0.0012968765
5	0x3adf260c	0.0017024889
6	0x399e45ed	0.00030188207
7	0x3a2b1322	0.00065259833
8	0x37f293de	2.8917504e-05
9	0xba0e7185	-0.0005433786
10	0xba20137b	-0.00061064184
11	0xb87b78b6	-5.9955484e-05
12	0x3a1f08b9	0.00060666684
13	0x39ba3812	0.0003551846
14	0x3995b744	0.00028556038
15	0x3903e9b4	0.00012580195
16	0x39af4918	0.0003343306
17	0xb85ce499	-5.2664986e-05
18	0x3a197913	0.0005854528
19	0x39b0d3e3	0.00033727204
20	0x3a2a7ef1	0.0006503901
21	0xb8913c9f	-6.92543e-05
22	0x39c3d044	0.00037348468
23	0xb9ddd303	-0.0004230962
24	0x3a4ddc47	0.0007852953
25	0xba01f56e	-0.00049575313
26	0xb97f4750	-0.00024345261
27	0xb914518a	-0.00014144756
28	0x38899bdc	6.5617e-05
29	0xb78ec068	-1.7017315e-05
30	0x39c19663	0.00036923875
31	0x3952152f	0.00020035052
32	0x3a43802d	0.00074577593
33	0xb9b2fb3d	-0.00034137993
34	0xbaaf2a26	-0.0013364002
35	0xb91b7099	-0.00014823898
36	0xba3d5d29	-0.000722366
37	0x38dc9d3e	0.00010519706
38	0xba37d185	-0.0007012117
39	0xba2725be	-0.00063761685
40	0xba0d0e5d	-0.00053808634
41	0xb9de8154	-0.00042439497
42	0xb9d192d5	-0.00039972985
43	0xb8ec87b7	-0.00011278636
44	0xb9670b2c	-0.00022034039
45	0xb90e876d	-0.00013592625
46	0x38d37bf5	0.00010084353
47	0xb98fe4a2	-0.0002744543
48	0xba00a9b1	-0.00049080985
49	0xba8a4de3	-0.0010551777
50	0x390712e1	0.00012881636
51	0x3a558aac	0.0008145969
52	0x3a48097b	0.0007630807
53	0x3a926a24	0.0011170548
54	0x3985ece4	0.00025544234
55	0xb9f5a365	-0.0004685178
56	0xb7d083a5	-2.4856834e-05
57	0x39683c19	0.00022147632
58	0x39904192	0.00027514674
59	0xb9af7d81	-0.0003347211
60	0xb90712c3	-0.00012881593
61	0x3a3de9e6	0.00072446314
62	0x3910416f	0.00013757286
63	0xb9c8880e	-0.0003824834
64	0x3aaf516b	0.0013375705
65	0x3a94f85c	0.0011365521
66	0xb9957608	-0.00028507435
67	0xb93a8951	-0.00017789497
68	0x39e1ab73	0.00043043084
69	0xba759956	-0.0009368857
70	0x38e4a9d8	0.00010903523
71	0x397814b2	0.00023658833
72	0x3ab89886	0.0014083541
73	0x3aa42751	0.0012523924
74	0x39e24dcc	0.00043164042
75	0xb943debc	-0.00018679624
76	0x3afeb05b	0.001943122
77	0x3aa768d5	0.0012772331
78	0x37fc8603	3.0103145e-05
79	0x3a906241	0.001101561
80	0xb91f0b8c	-0.00015167723
81	0x3a82129e	0.0009923761
82	0xba2a1f04	-0.0006489607
83	0xba7497c0	-0.0009330474
84	0xbafa55a7	-0.0019099013
85	0xbae0d055	-0.0017151932
86	0xbb75e432	-0.0037520048
87	0xbb9ced8a	-0.004789059
88	0xbb77fbb4	-0.0037839236
89	0xba9a9036	-0.0011792246
90	0xba861bb7	-0.0010231648
91	0xbaf7cfd5	-0.0018906543
92	0xbb71fe23	-0.003692516
93	0x3baaf20f	0.005216844
94	0x3bf1b9a3	0.007376866
95	0xbb3ded59	-0.0028980582
96	0xbb7d2702	-0.0038627987
97	0x3bdd945c	0.0067620706
98	0xba965750	-0.0011470113
99	0xbbed7e0e	-0.007247693
100	0xbc1c3a4d	-0.009535384
101	0x3bc377f2	0.0059652263
102	0x3b467355	0.0030281146
103	0x3ae0f054	0.0017161467
104	0xbbaf1cf2	-0.0053440267
105	0x3a317bda	0.00067704695
106	0xbc2174e6	-0.009854531
107	0xbb61052c	-0.0034335358
108	0x3bd534fe	0.0065065613
109	0x3ba46b39	0.0050176647
110	0x3bd69395	0.006548355
111	0x3a3e1a73	0.0007251866
112	0x3ba7d96c	0.0051223543
113	0xbbb3e8c1	-0.005490393
114	0xbbc0d4d7	-0.0058847475
115	0x3bd44c3b	0.006478814
116	0xbb687eca	-0.0035475963
117	0x3bd194ee	0.0063959276
118	0xba33ae42	-0.00068542745
119	0x3bc87efc	0.0061186533
120	0xb7a7cd8f	-2.0003672e-05
121	0x3a94623e	0.0011320782
122	0x3b75f112	0.0037527722
123	0xbb1a3141	-0.0023527893
124	0x3beafa35	0.0071709403
125	0xbba05314	-0.004892716
126	0x3b3479c3	0.0027538396
127	0x3b3f9cf9	0.002923785
128	0xb99f6ff4	-0.00030410255
129	0xba787431	-0.0009477763
130	0x3b207a27	0.002448687
131	0x3ab4f8e4	0.0013807085
132	0x3946273d	0.00018897369
133	0x3a49f2a4	0.0007703698
134	0x39e107cb	0.0004292115
135	0x39c22d71	0.0003703642
136	0xb972379e	-0.00023099637
137	0x387ef70b	6.0788396e-05
138	0x38f18829	0.00011517137
139	0x39d38eb1	0.0004035137
140	0x39276187	0.00015962693
141	0x38bed288	9.0991205e-05
142	0x39cba3a0	0.00038841087
143	0x39f1fa1d	0.0004615345
144	0x3a212cd0	0.000614834
145	0xb9106cbe	-0.0001377342
146	0x3a185378	0.00058107777
147	0x38e91c08	0.00011115527
148	0x3a718980	0.00092139095
149	0x396d6def	0.00022643035
150	0x3a9142d8	0.0011082543
151	0x3a78c2ac	0.00094894576
152	0x3ade36b2	0.0016953556
153	0x3a148e75	0.00056669797
154	0x3983e106	0.00025153923
155	0x3901c134	0.00012374372
156	0x38fe02b9	0.00012112171
157	0x39bddee5	0.00036214959
158	0x3aa5d81e	0.0012652909
159	0xb902061d	-0.00012400043
160	0x3a802a51	0.0009778236
161	0x3ad1cd41	0.0016006605
162	0x3a3c12d9	0.00071744394
163	0x3b03413a	0.0020027892
164	0x3a119042	0.0005552807
165	0x3a68fbd2	0.0008887622
166	0x38db7d3c	0.000104660605
167	0xb8f626b0	-0.000117374
168	0x39d264f4	0.00040129537
169	0x39d3681c	0.00040322624
170	0x3a18a0f6	0.0005822325
171	0x3881e323	6.193507e-05
172	0x39b46450	0.00034407014
173	0xb921510e	-0.00015384352
174	0x36576f64	3.2102334e-06
175	0x39e5919f	0.0004378678
176	0x39a643f9	0.0003171263
177	0x3a758acb	0.000936669
178	0x3abc0ae2	0.0014346505
179	0x3ae6124f	0.0017553064
180	0x3af10623	0.001838867
181	0xb8ea3a4d	-0.00011168849
182	0x3984b2fe	0.00025310362
183	0x3921c470	0.00015427335
184	0xb919b043	-0.0001465688
185	0x3983c25a	0.0002513107
186	0x39cd2625	0.00039129067
187	0xba0eafa1	-0.0005443041
188	0xb9428967	-0.00018552468
189	0xb8ebf3bc	-0.00011251072
190	0x3acbf65a	0.0015561089
191	0x3a403c7f	0.00073332334
192	0x3a5f38ff	0.0008515268
193	0x39be59fd	0.0003630667
194	0x3a9e36d2	0.0012070781
195	0x3a7c8309	0.0009632563
196	0x387a14e9	5.962412e-05
197	0x3aaca2d2	0.0013171083
198	0x3ae209eb	0.0017245387
199	0x3b20cd48	0.002453642
200	0xb9395525	-0.00017674694
201	0xb9cc37c3	-0.00038951458
202	0x3a0c20f5	0.0005345487
203	0xba257b74	-0.00063126464
204	0xbab87507	-0.0014072963
205	0xba096652	-0.0005241382
206	0x3b0ce758	0.0021500196
207	0x3b568364	0.0032732124
208	0x3ad8fdb6	0.0016555104
209	0x3b8c3e5f	0.004279896
210	0x3babc4cb	0.0052419654
211	0x3b2bd329	0.002621839
212	0xba5a235d	-0.00083213096
213	0xb9f3c17b	-0.00046492726
214	0xbbd5eed8	-0.0065287165
215	0x3b109f9e	0.0022067796
216	0xbbbccede	-0.005761965
217	0xbbabf6f8	-0.005247947
218	0xbb875f4d	-0.004131234
219	0x3b86ac13	0.0041098683
220	0x3b67556d	0.003529872
221	0xb976c062	-0.00023532056
222	0x3c043502	0.008069279
223	0xba9ddfe3	-0.0012044873
224	0xbbc44fa8	-0.005990941
225	0xbab0eff7	-0.001349925
226	0xbafae7ba	-0.0019142546
227	0x3b022578	0.001985876
228	0x3be612ad	0.0070212693
229	0xbb88b736	-0.004172231
230	0x3b677da3	0.0035322688
231	0xbb102db4	-0.0021999897
232	0x3b165ddc	0.0022944128
233	0xbb67cbe2	-0.0035369326
234	0x3b892ae3	0.0041860207
235	0x3c111ee3	0.008857462
236	0x3ad1efff	0.0016016959
237	0x3a84b062	0.0010123367
238	0x3a8bc517	0.0010663596
239	0xbab7c211	-0.0014019628
240	0x3bb6ab38	0.00557461
241	0x3a8a9f80	0.0010576099
242	0x3b4e4e8d	0.0031479925
243	0x3b8f20aa	0.0043679075
244	0xbbe1008e	-0.006866521
245	0xbb522589	-0.003206583
246	0x3c0dc761	0.008653493
247	0xbbdecb41	-0.006799132
248	0xbc023ceb	-0.007949094
249	0x3c11692a	0.008875171
250	0xbbdb300b	-0.006689077
251	0x3c1160d6	0.008873185
252	0x37c0226c	2.2904213e-05
253	0x3a98b2d3	0.0011649973
254	0xbae07603	-0.0017125014
255	0xba027fc7	-0.0004978147
