modeling/tabular/random_forest.tflite (tflite, 20656 bytes, 6 tensors)

arith.constant f4 [6, 22]
00000000: c313 68bf 124f b83e 7b16 e6bd a18a 853e
00000010: c7f4 9e3e eda9 45bf 86b1 a7bd 8b8c fa3e
00000020: 1d5d 023f f424 2fbe 4054 84be b99d 953d
00000030: 6d5a d33e 26b1 d23e bdfc fe3b 446e be3e
00000040: edce 73be 0db8 53bf b437 72bf fa39 93bc
00000050: a7cc 013e d45a c63c 09d2 39bf 10f7 9bbe
00000060: e1a0 33bf caa6 58be 4243 6e3e 9907 e1bd
00000070: 08fb 983e 6fb3 82be cca1 8ebf 3e64 dd3e
00000080: 58ad e53e 8e3b 563e 747e d6be 06cf 9fbe
00000090: 207d b5bd ba81 d7be d44b 043f 9a93 00bf
000000a0: 3db6 2fbf 7e9c e9be 7f2b d33e 54c7 c9bc
000000b0: 6d24 af3e 9f28 72be bb6c 3c3f 014c a0bf
000000c0: 8c59 a2be 849c a13f aa4b f93e a35b 533f
000000d0: a1ac 423f a81d 0e3d 46c4 b5be 22c0 30bf
000000e0: f224 753e dcd8 b3bd ac3a 21bf bc9e fabe
000000f0: 31a0 cc3d b8b5 1d3f ca89 173f af84 dcbe
00000100: 2ec2 9abe 1d3b d9be f83b 0ebf c0cd 66bf
00000110: 87d0 303e 4eda 0dbf 63a1 c13e 126f 23be
00000120: 0c8a 82bf 586d 573e 2f3e 7ebf a8b4 aabe
00000130: b558 193f 72a8 b9be e5de 52bf d897 83be
00000140: ffea 513e 4b4f 813d 70c9 33be 6cbe 8bbd
00000150: 9925 0dbf 58b1 6f3e 85de b93c cc1a 083f
00000160: 9516 3abd 24e7 443f cd9c 853b ccd2 6bbd
00000170: 8c4f 59bf 7b43 9bbf f58f ef3e 7890 1d3f
00000180: 4843 19bf 6049 1abf 75cf e3bd 1b53 d1be
00000190: 8a36 473e 4637 80be 0948 a5bc ac12 273e
000001a0: a670 30bf f301 1d3f ceda 7e3e c8ec 0e3e
000001b0: b55a 24bf b2fb 303f d57a 593f def0 27bf
000001c0: 982e b2bd be80 563e 2ffd 813d 2793 babe
000001d0: 6457 ffbd f7f4 57bf d735 1fbe 7cae d73e
000001e0: 386a c6be 5695 0f3f cb04 9c3d fc76 5c3e
000001f0: 897d 0fbe 5b87 d13c 3f85 0abf d9c0 e53e
00000200: 1d57 433f 728c c73e 54ab b93e 5e17 31bf
-0.90655154 0.35997826 -0.112347566 0.26082328 0.31046125 -0.7721241 -0.08188157 0.4893535
0.5092333 -0.1710394 -0.25845528 0.07305474 0.41279927 0.4115078 0.0077815936 0.371935
-0.23809405 -0.82702714 -0.94616246 -0.017971981 0.12675725 0.024213232 -0.72586113 -0.3046193
-0.70167357 -0.21157375 0.23267844 -0.10987777 0.29879022 -0.25527522 -1.1143126 0.4324054
0.44858813 0.20921156 -0.4189335 -0.31212634 -0.08861756 -0.4209116 0.51678205 -0.5022522
-0.6863745 -0.45627207 0.41244122 -0.02463118 0.34207478 -0.23648308 0.7360341 -1.2523195
-0.31708944 1.262589 0.4869054 0.825617 0.7604466 0.03469625 -0.35501307 -0.6904317
0.23939875 -0.08781597 -0.6298015 -0.4894923 0.099914916 0.61605406 0.59194624 -0.4306998
-0.30226272 -0.42427912 -0.55560255 -0.901577 0.17267047 -0.5541123 0.3781844 -0.15960339
-1.0198379 0.21037805 -0.99313635 -0.33340955 0.5990098 -0.36261326 -0.8237136 -0.25701785
0.204998 0.06313952 -0.17557311 -0.068234295 -0.55135494 0.23407495 0.022689113 0.5316589
-0.045431692 0.7691519 0.00407753 -0.05757408 -0.84887004 -1.2129968 0.46789518 0.61548567
-0.5986829 -0.6026821 -0.11123554 -0.40883717 0.19454399 -0.2504217 -0.02017595 0.16315717
-0.6892189 0.613311 0.24888155 0.13957512 -0.6420091 0.69134057 0.8495305 -0.6560191
-0.08700293 0.20947549 0.06347119 -0.36440393 -0.1246784 -0.8435816 -0.15547882 0.4212531
-0.38752913 0.56087244 0.07618102 0.21529764 -0.14012732 0.025577238 -0.5410957 0.44873694
0.763048 0.3897434 0.36263525 -0.6917628

arith.constant1 f4 [22, 30]
00000000: 155f ebbe 792a 31be 63d1 d33d 7514 b73e
00000010: 4818 0f3d 418c ab3d 3e1c fdbe c5d9 cdbd
00000020: b16b 29bf c3d2 ab3e 1ddf b03e 5cdb 623d
00000030: 1e46 a8be 300b 3bbc 0b5b 35bf 5920 253f
00000040: 5fc7 473e dd8d 3dbd 0188 ce3d 239e 2ebe
00000050: 9d97 27bc 52c6 753f 3c26 af3c e684 83bd
00000060: 046c 603e 908a 1bbd 46be a33e 372e 0ebe
00000070: 1c3a 8c3e f764 f63e b346 213e 3af4 243e
00000080: e94e bd3e 077c be3e 7fc8 e5be 311d 0bbe
00000090: 2491 cc3e ea13 33bf 03bc 41be f1c8 963d
000000a0: b8c8 323f 16f5 c4be 6a60 c7be 3286 de3d
000000b0: dc43 86be 75be f3bd d899 99be c563 3bbe
000000c0: dee6 8f3e 004f 1e3e 17f9 8f3e e7da dfbe
000000d0: 7576 bf3e 3398 1ebf ce48 05be 026a 833e
000000e0: b986 a43e 3fc4 023e ac34 8b3e f63c e03e
000000f0: 3e8f a13e 56f8 603e 5e49 f43e bd10 f83b
00000100: c6c4 573e 4821 e7bd 055a 1a3d ebd8 0e3f
00000110: 2ad6 cd3e 7aba d63e 3ab5 bc3d bc6a 0ebe
00000120: a8bb 47be 60db ebbd 6665 b03e c80c 83be
00000130: 9565 10bf e4c0 873e 62d5 8dbe 945e 12bd
00000140: 05cb 073e 8509 f93e c33c 8bbe 0c7e 9d3e
00000150: 723e 173d 105c b0bc 1a2d 863e 94d0 febd
00000160: 096d 14be 9258 423e 0a27 e2be 36dd 4e3e
00000170: 7372 9f3d 50a9 903d 9a0e 5ebf b2ce 073f
00000180: 1e1f 4d3e 29ac 92be 1bb8 cebe 18b5 a93d
00000190: f4e1 a03e 1eae 66bf ceca a9bd 515b 013f
000001a0: 83d9 49be 0ac2 933e 588e 2cbe fe10 973d
000001b0: 1c23 cabb 1ae2 4e3e a062 1f3f 933a 873e
000001c0: 59fa c73d bdbf fcbe daa1 af3e eaaf acbd
000001d0: b629 8f3e 205c 01bd 2c3d fa3d e594 ef3d
000001e0: 1042 01be ad7c 033e 1a8e 9e3e 3100 63be
000001f0: 4ce0 2fbd a675 8a3e 5de1 763e 16c1 5cbd
00000200: 25eb 603e feff 94be d694 bb3d 6d3a 00bf
00000210: ce12 c63d 4227 d73e 8cdd a63e 90ac 36bd
00000220: 76bf 353f d1c1 ff3e f130 983e 81ec 2f3c
00000230: 4d04 2eba aa7f c93e c754 703e ed10 91be
00000240: 86ef 873e 0134 81be bb74 0abf 3fd0 023e
00000250: 787b 17be 3085 94be 051f 89be 25c1 87be
00000260: 0906 6ebe 45a4 173f 8219 77be b961 efbe
00000270: 0fa6 f9be 0733 473d 4aa1 b4be 1abb 8a3f
00000280: 26af 883e c5a3 66be 7ae1 3bbe 8998 1d3f
00000290: 6a4e ce3d e3a4 77bf d4fd f5be b776 f73e
000002a0: 2ccc 34bf 310d d53e d284 883f 446d 4f3f
000002b0: 4b7d 10bf 6434 233f 2f4e c9be 3212 dabd
000002c0: 22e8 05bf ccac 97be e59c 36bf 800f bf3e
000002d0: 39e7 933e aad4 37be d32b 3f3e 1e14 f93e
000002e0: 2f9c 503e 4eee 78be 1bfd b73e 59ee e9be
000002f0: 820c a8be 3891 273f fceb f33e 8a6d c03e
00000300: 185c 8abd e9f4 16bf 029f d7bd a5c1 8cbe
00000310: 2e2a e03e 6745 07be 061b 9f3e d1c1 df3e
00000320: 00b5 51bd be92 4d3c e3f0 a8be bcc9 82be
00000330: 0faa 203d bdc2 593e a4e9 2b3e 7ccd 683e
00000340: d7b8 24be bc93 253f bddd fa3d f3fb 7e3d
00000350: 4c18 97bd e72e ba3d 62f5 4ebe ff04 543d
00000360: 6595 913e 5e54 12be 75f1 a33e ceb4 9abb
00000370: 30b9 dd3e 2b45 123d 1f4d f3be 85c1 423e
00000380: a6f9 133e e6a8 b0be 7f99 dabe 143a 0aba
00000390: 40a9 4bbd 73a0 83be 8c04 df3e 3aeb dbbd
000003a0: 77f9 423e ee7e 533e 44fd 1dbb 4baa e33d
000003b0: 5fa9 52be 98e1 2c3e 44f6 34be 297e 173f
000003c0: 8863 a0be cd61 19be e07e 313e 026e 8f3e
000003d0: 1b92 05bf 8217 7e3e f5ba 2f3e 0831 eebe
000003e0: 1884 cd3e 7908 3f3f 47f3 303e 80b7 acbe
000003f0: 6b20 ecbe 0ca7 263f 50cc 95be f747 45bc
-0.4597098 -0.17301358 0.10342672 0.35757795 0.034935266 0.08376361 -0.4943561 -0.10051302
-0.6617995 0.33559236 0.34545222 0.05538498 -0.32865995 -0.0114162415 -0.70842046 0.64502484
0.19509648 -0.04627787 0.100845344 -0.17052512 -0.0102290185 0.9600574 0.021380536 -0.06421833
0.21916205 -0.03797394 0.31981105 -0.13884817 0.27388084 0.48123905 0.15749626 0.1610879
0.36974266 0.37204 -0.4487953 -0.13585354 0.39954484 -0.6995226 -0.18919377 0.07362545
0.6983752 -0.38468236 -0.38940746 0.108654395 -0.26223648 -0.11901561 -0.30000186 -0.18299778
0.28105825 0.15459824 0.28119728 -0.43721697 0.37395063 -0.6195099 -0.13016054 0.25666815
0.32134035 0.12770174 0.27188623 0.4379651 0.31554598 0.21969733 0.47712225 0.0075703547
0.21071157 -0.11285645 0.037683506 0.5579974 0.40202457 0.41939145 0.09214254 -0.13907903
-0.19505179 -0.11516452 0.3445236 -0.2559569 -0.56405 0.2651435 -0.2770186 -0.035734728
0.1326104 0.48640075 -0.27194795 0.3076023 0.036924787 -0.021528274 0.26206285 -0.12442127
-0.14494719 0.189791 -0.4417041 0.20201573 0.07785501 0.07063544 -0.8674103 0.53049767
0.20031402 -0.28646973 -0.40374836 0.08286494 0.3142239 -0.9010943 -0.08290635 0.5052996
-0.1971188 0.28858978 -0.16851175 0.07376288 -0.006168736 0.20203438 0.62259865 0.26411876
0.09764547 -0.49365035 0.3430317 -0.084319904 0.2796151 -0.031581998 0.12218699 0.11698321
-0.12622857 0.12840529 0.3096779 -0.22168042 -0.042938516 0.27042884 0.24109407 -0.05389508
0.219647 -0.29101557 0.091592476 -0.5008915 0.096715555 0.4202214 0.32590902 -0.044598162
0.7099527 0.49952558 0.2972484 0.010737539 -0.0006638214 0.39355212 0.2346984 -0.28333226
0.2654993 -0.25234988 -0.54084367 0.12774752 -0.14793193 -0.29007864 -0.2678148 -0.26514545
-0.2324449 0.5923503 -0.24130824 -0.46754244 -0.48759505 0.048632648 -0.35279304 1.0838349
0.26696128 -0.2252341 -0.18347731 0.61560875 0.1007355 -0.9673597 -0.48045218 0.4833276
-0.7062404 0.41611627 1.0665534 0.810261 -0.5644118 0.63751817 -0.39317462 -0.10648002
-0.5230733 -0.2962402 -0.7133315 0.37316513 0.28887346 -0.17952219 0.18669061 0.4864816
0.2037208 -0.24309656 0.35935292 -0.45689657 -0.32822043 0.6545596 0.4764098 0.37583572
-0.06755847 -0.58967453 -0.10528375 -0.2749149 0.4378218 -0.13210069 0.31075305 0.43702558
-0.051198006 0.012547193 -0.32996282 -0.25544536 0.03922468 0.21265693 0.16788346 0.22734636
-0.16086136 0.6467855 0.122493245 0.062251996 -0.07377681 0.09090977 -0.20210794 0.051762577
0.2843429 -0.14289996 0.32020155 -0.0047212606 0.4330535 0.035710495 -0.47519776 0.19019134
0.14450702 -0.3450386 -0.42695233 -0.00052729365 -0.049721956 -0.2570835 0.43558156 -0.10738225
0.19040476 0.20653889 -0.0024107257 0.11116465 -0.20572422 0.16882932 -0.17672068 0.5917688
-0.31325936 -0.14978714 0.17333555 0.28013617 -0.52176064 0.24813655 0.17161162 -0.46521783
0.40139842 0.74622303 0.17280303 -0.3373375 -0.46118483 0.65098643 -0.2925744 -0.012041084

arith.constant2 f4 [6]
00000000: ec14 4bbc 79d2 a7bd a5cf 5e3e a02c 52be
00000010: 339c 4d3e 89af dfbd
-0.012395125 -0.08194441 0.21758898 -0.20524836 0.20079117 -0.109221525

arith.constant3 f4 [22]
00000000: 6886 063e cc2d 923e e370 853e a0d3 8dbd
00000010: 7bb6 3cbe 2dbf ca3e 75fc af3e 6138 a33e
00000020: 516b 933e 0ef7 8ebd 9de2 afbd 420a a9bd
00000030: 9714 bf3e 0000 0000 968a 56bd 72fb b3bd
00000040: ba5c 47bd 3e0c 4a3e 404f 9c3e 5cf1 40ba
00000050: ac23 2cbe 43f5 843d
0.1313721 0.28550565 0.26062688 -0.0692513 -0.18428986 0.3959898 0.34372297 0.3187895
0.28792813 -0.06980716 -0.08588145 -0.0825391 0.37320396 0.0 -0.05237826 -0.08788194
-0.048672415 0.19731233 0.30529213 -0.0007360184 -0.16810483 0.064920925

sequential_63_1/dense_184_1/BiasAdd/ReadVariableOp f4 [30]
00000000: b2ff 5a3d 5023 2abd 7cba 80bc b850 0b3f
00000010: 2707 6fbe d732 d4bd aa44 253e d396 47be
00000020: 203f 2cbe 9daf 023f 5030 be3e 6729 89bd
00000030: 6243 50be 7985 4d3e 4d88 a6bd 8243 0f3d
00000040: 485e 24be 26d2 3a3e ecf3 3ebd 6537 d83d
00000050: 58dc 403e 84c6 a73e fbc5 d4bc 97c2 a0bd
00000060: 6dba 76bc 873b 85bc 16e7 c53d aa61 ccbb
00000070: 7a71 f5bb d551 d93e
0.053466506 -0.041537583 -0.015713923 0.5442004 -0.23342572 -0.103612594 0.16139475 -0.19491129
-0.16820955 0.51049215 0.37146235 -0.0669735 -0.20338205 0.20070447 -0.08131466 0.03497649
-0.1605159 0.18244228 -0.04661934 0.10557441 0.18834054 0.32768643 -0.02597331 -0.07849615
-0.015059096 -0.016263736 0.09663217 -0.0062372284 -0.007490334 0.42445245

sequential_63_1/dense_184_1/MatMul f4 [30, 126]
00000000: e177 8ebd 6357 aebc 9edf a1bc e265 ac3e
00000010: d06d 7f3e 155c 933e d6d4 5e3d 3632 6b3e
00000020: d630 5a3c e68a 8ebe 2055 99be a48c e7bc
00000030: f3df 533e f84f be3e 858a d23e 28b3 3b3e
00000040: 8ecf 973e c342 4ebd 4bae 013f 631d d03d
00000050: 8708 283e f545 86bc 3886 d03d 070e 9fbd
00000060: 7e0b 7e3e f1e9 56be 71fd b5bd 3f5f a4bd
00000070: 99ce 433d 1741 59bc 11db 903e a176 853d
00000080: 0b28 1a3e e28a ccbd c4ad 9dbe f54a ffbc
00000090: 87e9 2abe aecc ce3c 8dfc fdbd 0119 00be
000000a0: 0342 1ebe 0ae7 29be c0d6 1ebe 80a6 6ebd
000000b0: 21bc f0bd b9ec 8bbd eb24 c83c 6530 36bd
000000c0: 929e a6bd 29df 53be 5db3 193d e33c 3c3e
000000d0: 167a 2b3e 9394 693e bde8 333d 96f6 dcbd
000000e0: ec23 bcbb d98e 853d 729a b43d ab37 b4bd
000000f0: 5661 2abd 8753 263e 5b8b f13c b73d 91bd
00000100: 5cd6 543e b03b 6c3e 8538 68bd af04 07bd
00000110: e166 953d e2df 0ebe e71a 493c b5ad 053d
00000120: bef4 3e3e a895 3e3e bc48 a63d 8172 08bd
00000130: 985e 623e 84ea df3d a679 2d3b 741c dc3d
00000140: 5d62 3cbc dd28 7c3d 85ab 20bd b2c0 24bd
00000150: 25ec b5bd 9eef 83bd 83d7 1cbe 09cd 07be
00000160: 78ad f8bd caeb 18bd 609b f1bc 4f28 33bd
00000170: d760 c5bd d481 193e ce50 3e3e b54e 89bd
00000180: 897a b0bd 7504 253e bbdf dfbc a6c7 24be
00000190: c19d 62be a225 083e 8164 883d 80a8 1d3d
000001a0: 9e01 f1bd beff 703c 9670 5bbe 250e 98bd
000001b0: e3c2 0e3e 93e1 da3d 71cc 0d3e cae7 7a3c
000001c0: d0bd dc3d c45a ebbd fd90 fbbd d901 0a3e
000001d0: 23b2 96bd 2185 073e 7ed8 67bc 1b1a 013e
000001e0: 22c4 d7b9 7088 be3c 75bd 9d3d 13a5 45bd
000001f0: 3288 163e c562 cdbd 83a0 653e 131c 823e
00000200: 8c08 43bd 1c96 2ebe a724 f13e 0104 6f3e
00000210: 517d 0b3d 0ad2 8a3e 3d68 4a3e 0250 423e
00000220: 7503 e8bd 32c4 ea3c 3de4 203d 2135 d83e
00000230: 0362 6b3e e2c2 073e ef5d b03e a5f2 e13e
00000240: 5d30 083f 83fa 29bd 3a20 163e 2883 d73c
00000250: a49b 803e 823e 2a3d ef42 b33e 4fb0 cd3e
00000260: fa6a 1e3f c5a2 a43e 5aa7 3b3e 5979 c53d
00000270: 8f11 be3d e63e f13d 8fc5 823e d097 14bd
00000280: 07be 663e c849 ac3e 71bf 293e 4b12 f63e
00000290: e720 c93d 988d 323e 9c41 f63c 53f5 3bbd
000002a0: 0576 1f3e 204d 553e e007 9f3e 1707 ff3c
000002b0: f6b7 aa3d 2540 ccbc 477a 0b3a 41d7 af3d
000002c0: 9e31 bd3d 4f72 583e dd31 a13e 4b85 b73e
000002d0: e7e3 a13e f6b2 d2bc bf77 6f3d b310 3a3d
000002e0: a569 40bd fc4e 873d f562 013e c5ed f9bd
000002f0: 33de 22bd 6de5 aabc 9c9c 773e 056c 183e
00000300: bb69 2d3e aac7 893d ce7c 513e 66e5 123e
00000310: 94f1 db3b e60c 3a3e 99d3 693e 6bb1 ba3e
00000320: d22d 08bd 2043 8ebd 7a18 793d 9556 5dbd
00000330: 726f fdbd c576 51bd 83e5 263e b7ed 4f3e
00000340: acef cc3d 24ee 3c3e a5a7 793e 32ad c93d
00000350: c123 0bbd 35f0 52bc 3288 56be 3b16 8f3d
00000360: a813 2abe 82a5 f8bd 5cd4 dcbd 37de f13d
00000370: 5522 b63d 3963 b2bb 5154 383e 1a26 ebbc
00000380: 072a 12be a287 f5bc abf9 35bd 374c 353d
00000390: 5120 1e3e 83a5 bfbd 934c 9f3d 7ec6 43bd
000003a0: f15d 4c3d 5ca2 9cbd 1bb1 b73d ce30 413e
000003b0: 98bb 0a3d a120 af3c 08d0 b73c d863 f0bc
000003c0: fa4e ee3d 313a b43c a9b8 853d 3a19 b93d
000003d0: 7a29 11be fb50 87bd 094b 363e 2f0a 0fbe
000003e0: c30f 27be 6363 3a3e b16a 0cbe 153d 3a3e
000003f0: ef75 f43a 235f cf3d 9a49 89be ca66 b7bd
-0.06956459 -0.021281904 -0.01975995 0.3367148 0.24944234 0.2878119 0.054402195 0.22968373
0.013317307 -0.27840346 -0.29947758 -0.028265305 0.20690899 0.37170386 0.41121307 0.18330061
0.2965054 -0.050356638 0.50656575 0.10161855 0.16409503 -0.01639078 0.1018185 -0.077663474
0.24809071 -0.20987679 -0.08886231 -0.08025979 0.04780445 -0.0132601475 0.28292134 0.06516767
0.15054338 -0.09987427 -0.30796635 -0.031163672 -0.16690646 0.025244083 -0.12401686 -0.12509538
-0.15454869 -0.1659204 -0.15511608 -0.058264256 -0.11754633 -0.06832261 0.024431666 -0.044479746
-0.08135714 -0.20690598 0.03752457 0.18382601 0.16745791 0.22810583 0.04392313 -0.1078922
-0.005741587 0.06521387 0.088185206 -0.0879968 -0.041596733 0.162428 0.029485395 -0.07091849
0.20784897 0.23069644 -0.056694526 -0.03296345 0.07295013 -0.13952592 0.01227448 0.032636363
0.18648049 0.18611777 0.08119342 -0.033312324 0.22106397 0.10933402 0.0026470213 0.107476145
-0.011498061 0.061562408 -0.039226074 -0.04022283 -0.088829316 -0.06442188 -0.15316586 -0.13261808
-0.121424615 -0.03733424 -0.029493034 -0.043739613 -0.09637611 0.14990932 0.18585512 -0.06704465
-0.08617122 0.16114981 -0.027328363 -0.16091785 -0.22130491 0.13295606 0.066597946 0.038490772
-0.117678866 0.014709411 -0.21429667 -0.07424573 0.13941531 0.10687556 0.1384752 0.015314052
0.10778391 -0.114919215 -0.12283514 0.13477267 -0.07358196 0.13234378 -0.014150737 0.12607615
-0.00041154126 0.023258418 0.07702152 -0.04825313 0.14700392 -0.100286044 0.22424512 0.25412044
-0.047615573 -0.1704945 0.47098276 0.23341371 0.034055058 0.27113372 0.19766326 0.18975833
-0.113287844 0.028658006 0.039280165 0.42228034 0.22986607 0.13257936 0.34446666 0.44130436
0.53198797 -0.041498672 0.14660731 0.026307657 0.25118744 0.04156352 0.35012004 0.40173575
0.61881983 0.32155433 0.18325558 0.09642286 0.09280693 0.11779575 0.2554135 -0.036277592
0.22533427 0.3365004 0.16576935 0.4806083 0.09820729 0.17436826 0.030060582 -0.045888256
0.15572365 0.20830202 0.31060696 0.03113131 0.08335869 -0.02493293 0.000532065 0.08585978
0.09237979 0.21137355 0.31483355 0.35843882 0.31619188 -0.0257201 0.05846381 0.045426082
-0.04697575 0.06606862 0.12635405 -0.12203554 -0.039762687 -0.020861352 0.24180835 0.14884956
0.16934864 0.06727536 0.20457765 0.14345321 0.006712148 0.18168983 0.22834624 0.36463484
-0.033246823 -0.06946397 0.06081436 -0.05403765 -0.12374772 -0.051138658 0.1629849 0.20305525
0.10006651 0.18450218 0.24380358 0.098474875 -0.033969644 -0.012874653 -0.20950392 0.06986662
-0.16609061 -0.12140943 -0.10782692 0.11809962 0.08893267 -0.005443957 0.18000914 -0.028704692
-0.14273845 -0.029971901 -0.044427555 0.044262137 0.15442015 -0.09357741 0.07778277 -0.04779672
0.049894277 -0.07648155 0.08969327 0.18866274 0.03387031 0.021377863 0.022438064 -0.029344484
0.11636157 0.022000404 0.06529362 0.09038015 -0.14175978 -0.06607243 0.17802061 -0.13968728
-0.16314606 0.18201976 -0.13712575 0.18187363 0.001865087 0.10125568 -0.26813966 -0.08955152
