modeling/tabular/win2_lab50_acc93.pt (torch, 69722 bytes, 16 tensors)

model.0.weight f4 [85, 51]
0	0x3d4ca801	0.04996491
1	0x3e3a131b	0.1817135
2	0x3d0dbd40	0.03460431
3	0x3ea405c7	0.32035658
4	0x3e05f444	0.13081461
5	0xbd5698d0	-0.052391827
6	0xbdcc5494	-0.099770695
7	0x3e076e65	0.13225706
8	0x3e2fbe48	0.1716243
9	0xbe47bdcd	-0.19505997
10	0x3e229100	0.15875626
11	0xbd93ca11	-0.072162755
12	0xbc54e662	-0.012994381
13	0xbd7ea8f7	-0.062172856
14	0xbd7869ba	-0.060647704
15	0xbdd9b45c	-0.10630104
16	0x3cdc89bd	0.026921147
17	0xbdab2532	-0.08356704
18	0xbe07386d	-0.13205118
19	0x3d90069d	0.070325114
20	0xbcdd52c2	-0.027017001
21	0xba8a4cb4	-0.0010551424
22	0xbc98bb68	-0.01864405
23	0x3db1d813	0.08683791
24	0xbd8ff373	-0.07028856
25	0xbd298f31	-0.041396324
26	0x3d04c285	0.03241207
27	0xbdb2e7b0	-0.08735597
28	0x3c1d52a5	0.0096022235
29	0xbe6e50ad	-0.23272963
30	0x3e2270fb	0.15863411
31	0xbdf17558	-0.1178996
32	0x3d9a205d	0.07525704
33	0x3c0e2f10	0.008678213
34	0xbdaf9d24	-0.08574894
35	0x3db6182f	0.088913314
36	0xbd8bef19	-0.06832714
37	0x3db51f2f	0.088438384
38	0x3cba18ad	0.022716844
39	0xbd169d6e	-0.03677123
40	0x3d5bd219	0.05366716
41	0xbcb703c1	-0.022340657
42	0x3db0c543	0.08631375
43	0x3e16f08d	0.147402
44	0x3dd47458	0.10373753
45	0xbd2624e6	-0.040562533
46	0x3dcd5a18	0.1002695
47	0x3d317fa9	0.043334637
48	0x3db58092	0.088624135
49	0xbd8bb7cc	-0.06822166
50	0xbdf8e765	-0.1215351
51	0xbd879441	-0.06620074
52	0xbdf49b94	-0.11943737
53	0x3dd29cdc	0.10283825
54	0x3ce74ac9	0.028233903
55	0x3d3c1499	0.04591808
56	0x3d05658a	0.03256754
57	0xbc6c804b	-0.014434884
58	0x3dc7972d	0.09745631
59	0xbde47f8f	-0.11157142
60	0xbb4a4dae	-0.0030869055
61	0xbddc71e1	-0.10763908
62	0x3d013f66	0.031554602
63	0xbd75f39c	-0.060046777
64	0x3cfcdaca	0.030866046
65	0xbd290fd2	-0.041274853
66	0x3dd528ca	0.104081705
67	0xbdc28255	-0.09497515
68	0xbdc3a6f6	-0.0955333
69	0xbdc3a726	-0.095533654
70	0x3de92891	0.113846906
71	0x3d0e188d	0.034691382
72	0x3dfb24c7	0.12262874
73	0xbe02ab16	-0.12760577
74	0xbe1a89f1	-0.15091683
75	0xbdf92286	-0.12164788
76	0xbdd99937	-0.106249265
77	0x3d36b1f1	0.044603292
78	0x3d1bc87b	0.03803299
79	0x3dd575f3	0.10422888
80	0xbdace665	-0.08442382
81	0xbddb7b3b	-0.10716864
82	0x3d7f42c2	0.062319525
83	0xbd8ca84b	-0.06868037
84	0x3d954e8c	0.07290372
85	0xbd39812a	-0.045289196
86	0x3d8b491a	0.068010524
87	0xbdf71154	-0.12063852
88	0xbda8b040	-0.08236742
89	0x3d04c1f3	0.032411527
90	0x3c928952	0.017887745
91	0xbd40d977	-0.04708239
92	0x3d92bce6	0.07164936
93	0x3daad36c	0.08341107
94	0xbde832ca	-0.11337812
95	0xbdb153c5	-0.08658556
96	0x3dee634f	0.11640035
97	0xbd71e993	-0.059060644
98	0xbd7ba767	-0.061438944
99	0xbe16cefc	-0.14727396
100	0xbdbc576c	-0.09196362
101	0x3cbe2170	0.023209304
102	0xbc976920	-0.018482745
103	0xbdd02aed	-0.101644374
104	0x3b574240	0.0032845885
105	0xbdc3e46f	-0.095650546
106	0xbdf34d0c	-0.1187993
107	0xbd9deae7	-0.0771082
108	0xbdfafdb4	-0.12255421
109	0xbdb69a21	-0.089161165
110	0x3e0f5525	0.13997324
111	0x3cd8a908	0.026447788
112	0x3d30bf18	0.04315099
113	0xbe05bc83	-0.13060193
114	0xbdbc590e	-0.09196673
115	0xbd3ee93a	-0.04660914
116	0x3cb35ff0	0.021896333
117	0xbdfc576e	-0.123213634
118	0xbd772118	-0.060334295
119	0xbdabaf42	-0.08383037
120	0x39cb7400	0.00038805604
121	0xbd556bec	-0.052104875
122	0xbc1efad0	-0.009703353
123	0xbdc25430	-0.09488714
124	0xbdc4d7b5	-0.09611455
125	0xbda74e72	-0.08169259
126	0xbd44538a	-0.04793123
127	0xbde25910	-0.110521436
128	0x3df07446	0.117409274
129	0xbce3a8f4	-0.027790524
130	0x3df6be0a	0.12047966
131	0x3d32b59c	0.043630227
132	0xbdf2d79c	-0.118575305
133	0x3dc675c4	0.09690431
134	0xbd1dcf84	-0.03852798
135	0xbd5bdbc6	-0.05367639
136	0xbdee0ba2	-0.116233125
137	0xbe0e8d28	-0.13921034
138	0x3d2419a0	0.0400635
139	0xbcfa943c	-0.030588262
140	0x3d5f4c50	0.054516137
141	0xbdeb5904	-0.11491588
142	0x3dd4e970	0.10396087
143	0xbdd28290	-0.10278809
144	0xbcc61344	-0.024179108
145	0x3cef98b0	0.029247612
146	0x3d940ca2	0.07228972
147	0x3de784b2	0.113046065
148	0x3e029f0b	0.12755983
149	0xbde36462	-0.11103131
150	0x3d105850	0.03524047
151	0xbd76b366	-0.06022968
152	0xbc7b6958	-0.01534494
153	0xbdfa0fdc	-0.12210056
154	0x3de4ea19	0.11177463
155	0xbdfc76ef	-0.12327372
156	0x3d7785b6	0.06043025
157	0x3ce181bc	0.027527682
158	0x3cc13626	0.02358539
159	0xbdc7f8c1	-0.09764243
160	0x3de8bb62	0.113638654
161	0x3bb90ff5	0.005647654
162	0xba99f8cb	-0.001174712
163	0xbe10513b	-0.14093487
164	0x3d327ef6	0.04357811
165	0xbd1b0d1b	-0.037854295
166	0xbda9c324	-0.08289173
167	0x3dc98e12	0.09841551
168	0x3c4f86fe	0.012666462
169	0xbdc111bd	-0.094272114
170	0xbdb5417d	-0.088503815
171	0xbc9e80cf	-0.01934853
172	0x3d6ad888	0.057335407
173	0xbd137818	-0.036003202
174	0xbdc0730f	-0.09396946
175	0xbd8a05d9	-0.067393966
176	0xbdfbefbd	-0.12301586
177	0x3d16b22d	0.036791015
178	0x3dc96417	0.09833544
179	0xbe18953b	-0.14900677
180	0x3c7cad23	0.015422138
181	0x3d6050ac	0.054764435
182	0x3c678103	0.01412988
183	0xbd91b901	-0.07115365
184	0x3d717d7f	0.058957573
185	0x3d7d3908	0.061821967
186	0x3cf71434	0.030161
187	0xbd387051	-0.04502899
188	0xbd651594	-0.05592878
189	0xbbf167d9	-0.007367116
190	0xbd4684dd	-0.048466552
191	0xbd8136c4	-0.06309274
192	0x3d871f6b	0.065977894
193	0x3dc59ac9	0.096486636
194	0xbd1850a9	-0.0371863
195	0xbd604ffe	-0.054763786
196	0xbcafb2ef	-0.021447627
197	0xbd025e5c	-0.03182827
198	0x3c2718ba	0.010198766
199	0x3c8132f0	0.01577136
200	0xbe1a41ad	-0.15064116
201	0xbd99dd48	-0.07512909
202	0x3dc17a48	0.094471514
203	0x3cfec49c	0.03109961
204	0xbeddf23a	-0.43348867
205	0xbf7eaf09	-0.9948583
206	0xbe42a0c0	-0.19006634
207	0x3d14a428	0.036289364
208	0x3e0608a1	0.13089229
209	0x3e045b9f	0.12925576
210	0x3eab738f	0.33486602
211	0x3e9c6799	0.3054779
212	0xbd859848	-0.06523186
213	0xbd89f077	-0.06735318
214	0x3d14fd9b	0.03637467
215	0x3e22ace8	0.15886271
216	0x3e50896f	0.20364927
217	0x3d59c8cd	0.053170014
218	0x3e005e03	0.12535863
219	0x3be8c603	0.007103683
220	0xbd7951fa	-0.060869195
221	0x3df4e3b0	0.119574904
222	0xbda5fc7c	-0.08104798
223	0xbe30dbda	-0.17271367
224	0xbe116b11	-0.14200999
225	0xbcba05ff	-0.022707937
226	0xbe2058ac	-0.15658826
227	0x3d5d372d	0.054007698
228	0xbd60ad54	-0.0548528
229	0xbe1d1a4d	-0.15342064
230	0xbdc7d227	-0.0975688
231	0x3e24741c	0.16059917
232	0x3df2587f	0.118332855
233	0x3df36342	0.11884166
234	0xbd198237	-0.0374777
235	0x3d68f87e	0.056877606
236	0xbbe4d7fe	-0.006983756
237	0xbcbfce42	-0.023413781
238	0xbb3660a0	-0.002782859
239	0xbe35a9ae	-0.17740509
240	0x3dd58e0f	0.10427486
241	0xbd126127	-0.035737183
242	0xbd0bccda	-0.03413091
243	0xbdf77007	-0.120819144
244	0xbd593c0f	-0.053035792
245	0xbe0f9625	-0.1402212
246	0xbe0959c3	-0.13413148
247	0x3c0d7e78	0.0086361095
248	0xbda988f4	-0.08278075
249	0x3d30e292	0.043184824
250	0xbdb5e871	-0.08882225
251	0xbe169fc5	-0.14709385
252	0xbd8e3176	-0.06943028
253	0xbde7553b	-0.11295553
254	0xbdb4b33c	-0.08823249
255	0xbe07f5e1	-0.13277389

model.0.bias f4 [85]
0	0x3c2ba84b	0.010477136
1	0xbdfd6f40	-0.12374735
2	0xbd9e4e0f	-0.07729732
3	0xbdc0310f	-0.09384357
4	0x3df31568	0.11869317
5	0x3e0210cc	0.1270172
6	0x3dcfc455	0.10144869
7	0x3ce373df	0.027765213
8	0x3c759360	0.01498875
9	0x3de08de1	0.10964561
10	0x3ca8267d	0.020526165
11	0xbdf75a47	-0.12077766
12	0x3e147898	0.14499128
13	0xbd70e7a6	-0.058814667
14	0x3d464ee0	0.048415065
15	0xbd93da62	-0.072193876
16	0xbcb59bdb	-0.022169044
17	0xbd4e51c3	-0.050370943
18	0x3e35856c	0.17726678
19	0x3d389667	0.04506531
20	0xbde9b88b	-0.11412152
21	0xbb7f6e1c	-0.0038975542
22	0x3d124de1	0.035718802
23	0xbbd5bc62	-0.006522701
24	0xbaa1dd29	-0.0012349236
25	0xbbb0afd7	-0.0053920555
26	0xbcad0ba1	-0.02112371
27	0x3d6177ae	0.055045776
28	0x3a5a33d8	0.00083237654
29	0xbaa3bf6c	-0.0012492961
30	0xbd2886c3	-0.041144144
31	0x3dd4094a	0.10353334
32	0xbbca1af0	-0.006167762
33	0xbdd8d35f	-0.10587191
34	0xbe414cf4	-0.18877012
35	0x3d6c0a5f	0.05762708
36	0xbdc38615	-0.095470585
37	0xbe07425c	-0.13208908
38	0x3e3b8ae7	0.18314706
39	0xbdde34a6	-0.10849886
40	0x3ba79e09	0.005115275
41	0x3ca8f50a	0.020624656
42	0xbb9d714a	-0.004804765
43	0x3cacb709	0.021083372
44	0xbde297e2	-0.110641256
45	0xba9c9d45	-0.0011948725
46	0xbb848d90	-0.004045196
47	0xbd31893e	-0.043343775
48	0x3d9e67c6	0.07734637
49	0x3d3ef886	0.04662373
50	0xbd91f69b	-0.071271144
51	0xbaaf0f44	-0.001335599
52	0xbd76e8c0	-0.06028056
53	0xbd0737fd	-0.03301238
54	0x3e0130b7	0.1261624
55	0xbbe974bb	-0.007124511
56	0xbdde4782	-0.10853483
57	0x3d733ddf	0.059385177
58	0xbe031056	-0.127992
59	0xbdaa3266	-0.08310394
60	0x3c9a4ed9	0.018836426
61	0x3e0ad3fa	0.13557425
62	0x3e01da17	0.12680851
63	0x3bed7419	0.007246506
64	0x3dad28d0	0.0845505
65	0xbdfbdb5e	-0.122977
66	0xbd649f06	-0.05581572
67	0x3bb14087	0.0054093036
68	0x3e0602f1	0.1308706
69	0xbdc80e69	-0.097683735
70	0x3de37fcd	0.111083604
71	0x3ce54d5e	0.027990993
72	0x3e081e08	0.13292706
73	0xbd788ed4	-0.060683087
74	0x3db66188	0.08905321
75	0xbd74e245	-0.0597861
76	0x3ce3a192	0.027787004
77	0xbd6ab3bc	-0.057300314
78	0x3d787b92	0.06066472
79	0x3c078345	0.008271043
80	0xbdcba9c7	-0.09944492
81	0x3d67dae4	0.056605235
82	0xbe1ba353	-0.15199022
83	0xbdf16603	-0.11787035
84	0xbd5ef683	-0.05443431

model.2.weight f4 [65, 85]
0	0xbdd7ceb4	-0.10537472
1	0xbdd325be	-0.10309933
2	0xbdc532b4	-0.096288115
3	0x3db29873	0.08720484
4	0x3cc2e844	0.023792394
5	0xbd0dc144	-0.03460814
6	0xbb9212b0	-0.004457794
7	0xbdc19e5a	-0.09454031
8	0xbdd1cc17	-0.10244005
9	0xbd9ae9df	-0.075641386
10	0xbdd6e758	-0.10493344
11	0x3d922587	0.07136064
12	0xbd1b7710	-0.037955344
13	0xbcefdbb0	-0.02927956
14	0xbdbf4ac9	-0.09340436
15	0x3c932984	0.017964132
16	0xbc854ffc	-0.016273491
17	0xbd973a5e	-0.073841795
18	0x3d8e6ce5	0.06954364
19	0x3dbb3dc3	0.091426395
20	0xbd9e55a4	-0.077311784
21	0x3d7bb776	0.06145426
22	0xbc904790	-0.017612249
23	0xba863880	-0.0010240227
24	0x3d3d1aba	0.046168067
25	0xbca1ff78	-0.019775137
26	0x3dbcbcaf	0.09215676
27	0x3d88ac55	0.06673495
28	0xbd903232	-0.07040824
29	0xbd872f22	-0.06600787
30	0xbddc17d8	-0.10746735
31	0x3d0e3dc6	0.03472688
32	0xbda7169f	-0.081586115
33	0xbdba30be	-0.09091328
34	0xbd8e61e4	-0.06952265
35	0xbddb9ed1	-0.10723651
36	0xbdb4df94	-0.08831707
37	0x3dc62363	0.09674718
38	0x3d782a2e	0.0605871
39	0x3dc4d1a9	0.09610302
40	0xbd57823b	-0.05261443
41	0xbd363830	-0.04448718
42	0xbd1be19e	-0.038056962
43	0x3b0ad4a0	0.0021183863
44	0xbd9f712e	-0.07785259
45	0x3c824348	0.015901223
46	0xbd8e5e02	-0.06951524
47	0x3c8c688c	0.017139696
48	0x3dcb7a0d	0.09935389
49	0x3c961324	0.018319674
50	0x3da20951	0.07911933
51	0xbd9e3536	-0.07724993
52	0xbc7aca50	-0.015307024
53	0xbd892a2a	-0.06697495
54	0xbc4529c0	-0.01203388
55	0xbd30bb0c	-0.04314713
56	0xbd7c40dd	-0.061585296
57	0xbdd6922a	-0.10477097
58	0xbd24bbc6	-0.040218137
59	0x3c6dfc50	0.014525488
60	0xbc9c504c	-0.019081257
61	0xbdcee2d2	-0.10101856
62	0x3da6dd47	0.08147674
63	0x3da4b627	0.08042555
64	0xbd85ed32	-0.06539382
65	0x3c34a6a8	0.011026062
66	0x3d938037	0.072021894
67	0xbdd2f3ab	-0.10300382
68	0xbdc447b4	-0.09583989
69	0x3d768316	0.060183607
70	0xbb0cca20	-0.002148278
71	0x3d0d793e	0.034539454
72	0xbd38c0dc	-0.0451058
73	0x3ca11a5c	0.01966589
74	0x3d935487	0.07193857
75	0xbcd96180	-0.02653575
76	0xbd0f80b6	-0.035034858
77	0xbdd38428	-0.10327941
78	0xbc891c38	-0.016737089
79	0x3d8cc2ab	0.068730675
80	0xbdd1ef40	-0.102507114
81	0xbc094650	-0.00837858
82	0x3da1ec59	0.07906408
83	0xbcfd9abc	-0.030957572
84	0xbd242520	-0.040074468
85	0x3c005837	0.007833532
86	0xbd035674	-0.03206487
87	0x3c54b198	0.012981795
88	0xbdb593ed	-0.08866105
89	0xbe6d706e	-0.2318742
90	0x3d3fb0b5	0.04679938
91	0x3d77da44	0.06051089
92	0x3d5e97d6	0.05434402
93	0x3d8e0352	0.06934227
94	0xbc393f5a	-0.011306608
95	0xbd950c8f	-0.07277786
96	0xbda0aeb7	-0.07845824
97	0xbd2947d6	-0.041328274
98	0xbd0f30f4	-0.034958795
99	0x3e1950fe	0.14972302
100	0xbd9c23eb	-0.07624038
101	0x3cd1705c	0.025566272
102	0x3b671297	0.0035258883
103	0xbe1b7f69	-0.15185322
104	0x3d61e1be	0.055146925
105	0xbd71d024	-0.05903639
106	0x3e795132	0.2434738
107	0x3dc8b051	0.09799255
108	0x3d752288	0.059847385
109	0x3ddc6fec	0.10763535
110	0x3d87d1cd	0.06631813
111	0x3e18a922	0.14908269
112	0xbdab951c	-0.0837805
113	0x3e04f825	0.12985285
114	0x3e82281a	0.2542122
115	0x3d7cb73f	0.061698195
116	0x3e836129	0.25660065
117	0xbd94c3f2	-0.07263936
118	0xbd63fcc3	-0.055660974
119	0xbd67be82	-0.056578167
120	0x3f3f8245	0.7480815
121	0x3e07fe2e	0.13280556
122	0xbc676108	-0.014122255
123	0xbe95e279	-0.29274347
124	0x3d984871	0.07435692
125	0x3d69bd64	0.057065383
126	0x3e32f996	0.17478022
127	0xba41b45d	-0.0007389242
128	0x3dc0147d	0.09378908
129	0x3b9991c0	0.004686564
130	0x3cf31fdb	0.029678276
131	0xbd2aef29	-0.041731987
132	0x3dbcca6b	0.09218296
133	0x3e105643	0.14095406
134	0x3e0de947	0.1385852
135	0x3ddb7ce5	0.10717181
136	0x3d697701	0.056998257
137	0xbd8c07f1	-0.06837452
138	0x3ca0b68a	0.019618291
139	0xbc907afc	-0.017636769
140	0x3c9b9392	0.018991265
141	0x3d8436b6	0.06455748
142	0x3dbde0e5	0.09271411
143	0xbd8e20e8	-0.0693987
144	0x3eb4809c	0.3525437
145	0xbce24c21	-0.027624192
146	0x3e0f6098	0.14001691
147	0x3d97ea06	0.07417683
148	0x3e160001	0.14648439
149	0xbdb59183	-0.08865645
150	0x3da1ebe9	0.079063244
151	0x3e33d4ee	0.17561695
152	0x3e010b0d	0.12601872
153	0xbdac66cc	-0.084180444
154	0x3d9050bf	0.07046651
155	0xbdb7efff	-0.089813225
156	0xbd45672f	-0.048194107
157	0x3c863de4	0.016386934
158	0x3eee377c	0.46526706
159	0xbb6ffe2a	-0.003662
160	0x3e460bf9	0.19340505
161	0x3d7df660	0.06200254
162	0x3e52c476	0.20582756
163	0x3c7b315f	0.015331595
164	0x3e2e6700	0.17031479
165	0xbd395fb9	-0.045257304
166	0x3c982640	0.018572927
167	0x3cc98c51	0.02460304
168	0xbb1002e9	-0.002197439
169	0x3e0c7301	0.13715746
170	0x3e053703	0.13009267
171	0x3d487c12	0.048946448
172	0xbdb9e096	-0.090760395
173	0xbcc241fb	-0.023713103
174	0xbee1ba16	-0.44087285
175	0x3b1cb8e7	0.0023913921
176	0x3de766d6	0.11298911
177	0x3e7535ba	0.23946276
178	0xbc81d489	-0.015848415
179	0x3d139e40	0.03603959
180	0xbca3eb90	-0.020009786
181	0xbd500cee	-0.05079358
182	0x3d51e4a4	0.05124344
183	0x3d9f6a8e	0.077839956
184	0xbc61e368	-0.013787128
185	0x3cd6a3ee	0.026201215
186	0x3bbcd80b	0.005763059
187	0x3d623297	0.055224027
188	0xbe171776	-0.14755043
189	0xbd14475c	-0.036200866
190	0x3d2c0001	0.04199219
191	0x3e64007c	0.2226581
192	0x3b718c94	0.0036857473
193	0x3e079c06	0.13243112
194	0x3e1b55e0	0.15169477
195	0x3c577cc2	0.013152303
196	0xbd96cb47	-0.07362991
197	0xbe03a31e	-0.12855193
198	0x3b98b519	0.0046602604
199	0x3dd4c1b6	0.1038851
200	0x3d48e5ad	0.04904716
201	0x3dceb35b	0.10092803
202	0x3d85b629	0.06528885
203	0x3d382509	0.044957194
204	0xbe88056d	-0.2656664
205	0x3f2aecb2	0.6676742
206	0x3d164547	0.03668716
207	0xbb789e60	-0.0037936196
208	0xbe9c2710	-0.30498552
209	0xbd02c2d6	-0.03192409
210	0x3d8da34d	0.06915913
211	0x3e0d5c3f	0.1380472
212	0x3b6a397c	0.003573983
213	0x3dad952b	0.08475717
214	0xbdd909f7	-0.10597604
215	0x3d0888af	0.033333477
216	0x3e064402	0.1311188
217	0x3e3dd4ee	0.18538257
218	0xbc089c14	-0.008337993
219	0x3e2015dd	0.1563334
220	0xbd033ebc	-0.03204225
221	0x3def0a29	0.1167186
222	0x3d81e305	0.06342129
223	0x3d70c33e	0.058779947
224	0x3db675b1	0.089091666
225	0x3e9791db	0.29603466
226	0xbd5f1ec9	-0.05447272
227	0x3e1ad499	0.15120162
228	0x3dad6aaf	0.08467614
229	0x3ed8ff79	0.4238241
230	0xbcc4e81f	-0.024036465
231	0x3c8450b1	0.016151758
232	0x3d5f7d32	0.054562755
233	0x3df919de	0.12163137
234	0xbd0ace03	-0.033887874
235	0x3db08eed	0.08621011
236	0x3ec100fb	0.3769606
237	0x3da4172e	0.08012234
238	0xbdcf36e3	-0.10117891
239	0x3d4731a4	0.048631325
240	0x3d8a4c9e	0.06752895
241	0xbcee6139	-0.029099094
242	0xbc92f019	-0.017936753
243	0x3f20d292	0.62821305
244	0x3d77b153	0.060471844
245	0x3e234e31	0.15947796
246	0x3e10d79a	0.14144745
247	0x3e3c3a5e	0.1838164
248	0xbc57b32b	-0.013165276
249	0x3c745ff2	0.014915453
250	0xbd38d0db	-0.045121055
251	0x3e0f6388	0.14002812
252	0x3dc3d739	0.09562535
253	0x3d4cf151	0.050034825
254	0x3e1fa732	0.15591124
255	0x3d2ce7d7	0.042213287

model.2.bias f4 [65]
0	0xbda7be78	-0.08190626
1	0xbd1fed87	-0.039044883
2	0xbc2cf22c	-0.010555785
3	0x3dadf2f5	0.08493606
4	0x3c8ff507	0.017572893
5	0xbc404a7c	-0.011736508
6	0x3cf0995c	0.029370002
7	0x3d8ba513	0.06818595
8	0x3e09aa42	0.13443854
9	0x3ce0f71b	0.02746158
10	0x3e04a913	0.12955122
11	0xbc97ad48	-0.018515244
12	0x3db3a360	0.08771396
13	0xbd72ffe2	-0.05932606
14	0x3d1865ee	0.037206583
15	0xbd2a2ccc	-0.041546628
16	0x3d1d14ab	0.03834979
17	0xbe010430	-0.12599254
18	0xbc932a6c	-0.017964564
19	0x3d8d8e42	0.06911899
20	0xbd5e2c59	-0.054241512
21	0x3de7624b	0.11298045
22	0x3b4aa5f6	0.0030921674
23	0x3d785e67	0.060636904
24	0x3d80bd8a	0.06286152
25	0xbde1201a	-0.10992451
26	0xbc441a9a	-0.011969233
27	0x3d407983	0.046990883
28	0xbdaf4d9f	-0.08559727
29	0x3d3f495a	0.046700813
30	0xbd90098c	-0.07033071
31	0xbd9bafd5	-0.07601897
32	0xbd374095	-0.044739325
33	0xbd8ce252	-0.06879105
34	0xbdff3f26	-0.124632165
35	0x3dd41841	0.103561886
36	0xbdd455da	-0.103679374
37	0x3de70cd4	0.11281744
38	0xbd975baf	-0.07390534
39	0xbd2e145f	-0.042499896
40	0x3e04b519	0.12959708
41	0xbe04a9ef	-0.1295545
42	0xbe0bb87d	-0.13644595
43	0x3d8cb0aa	0.068696335
44	0xbdb429d5	-0.08797041
45	0x3d1e4d7c	0.038648114
46	0x3d8d9639	0.06913418
47	0x3bd68624	0.0065467525
48	0x3dc021fd	0.09381483
49	0x3de779b1	0.11302508
50	0x3dda418c	0.10657033
51	0x3e195278	0.14972866
52	0xbdce62c8	-0.10077435
53	0x3d87e0cd	0.06634674
54	0xbc3952c4	-0.011311237
55	0x3ddba82b	0.10725435
56	0xbde0d080	-0.10977268
57	0xbd9a1faa	-0.07525571
58	0xbd8d66d6	-0.0690438
59	0x3d4a7fb6	0.0494382
60	0xbcaf353d	-0.02138769
61	0xbd27dadf	-0.040980216
62	0x3e1fa9f5	0.15592177
63	0xbd0c1282	-0.034197338
64	0x3e13d3ec	0.1443631

model.4.weight f4 [45, 65]
0	0x3c7dad40	0.015483201
1	0x3dbc9a9e	0.092091784
2	0x3e5c8695	0.21535714
3	0xbd9a9a28	-0.07548934
4	0x3e1c2cdd	0.15251489
5	0x3e31ed70	0.17375731
6	0x3e345827	0.17611752
7	0xbd86c8e0	-0.065812826
8	0xbe0962bf	-0.13416575
9	0x3e7435d0	0.23848653
10	0xbc9ff3f6	-0.01952551
11	0x3e273cb1	0.16331746
12	0x3d9a36a2	0.07529952
13	0x3e80b267	0.2513611
14	0x3c64231d	0.013924387
15	0x3e135248	0.14386857
16	0x3da2a3b3	0.079413794
17	0x3dfcad13	0.12337699
18	0xbd4a8b0c	-0.04944901
19	0x3d41f10a	0.047349013
20	0xbd94e341	-0.07269908
21	0x3d152032	0.036407657
22	0x3e317c76	0.17332634
23	0x3dd52d10	0.104089856
24	0x3e13276f	0.14370511
25	0xbdf2195b	-0.118212424
26	0x3e202e9c	0.1564278
27	0xbd576ff5	-0.052597005
28	0x3ed5977f	0.41717145
29	0x3e154980	0.1457882
30	0x3e5a3310	0.21308541
31	0xbdaded9e	-0.084925875
32	0xbc1acaa8	-0.009447731
33	0x3dcfe06a	0.101502255
34	0x3db97c68	0.09056932
35	0x3dad1158	0.08450574
36	0xbd9992cf	-0.07498705
37	0xbd984e9d	-0.07436869
38	0xbdb1cac5	-0.08681253
39	0xbc262af8	-0.0101420805
40	0xbdc4d1c7	-0.09610324
41	0x3e120f1b	0.14263575
42	0xbd60753f	-0.054799315
43	0xbd45b311	-0.048266474
44	0x3d158814	0.036506727
45	0x3e4376d6	0.19088301
46	0x3e2040bf	0.15649699
47	0x3e53f7b0	0.20699954
48	0xbe067d1c	-0.13133663
49	0x3e7d5b04	0.24741751
50	0xbb28201c	-0.0025653904
51	0x3cb52476	0.022112112
52	0xbc876550	-0.016527802
53	0x3d655e86	0.055998348
54	0x3e7bd737	0.24593817
55	0x3c505ed0	0.012717918
56	0x3eafeaef	0.34358928
57	0x3da148d8	0.07875222
58	0x3ca973ea	0.020685155
59	0x3dcb188c	0.09916791
60	0x3e23a5bf	0.15981196
61	0xbd9b56e9	-0.07584936
62	0xbdc68e80	-0.096951485
63	0x3ede2e16	0.43394536
64	0xbd993ba0	-0.07482076
65	0xbda8d8fb	-0.08244511
66	0x3c353443	0.011059823
67	0x3dfc56e3	0.1232126
68	0xbdf14d71	-0.11782349
69	0xbe8a0526	-0.26957053
70	0xbd968d3b	-0.07351156
71	0x3d891d81	0.066950805
72	0xbe28c2cd	-0.1648056
73	0xbe8918d6	-0.2677676
74	0xbc36f2f3	-0.011166322
75	0xbe23fd47	-0.16014586
76	0x3da1e1bf	0.07904386
77	0xbe0a4ebe	-0.135066
78	0x3db85ae9	0.09001715
79	0x3d1fe0f1	0.03903288
80	0xbbbc056b	-0.0057379506
81	0x3e0ecacb	0.13944547
82	0xbce954e4	-0.028482862
83	0xbca31b04	-0.019910343
84	0xbe0b404f	-0.1359875
85	0x3cb097f8	0.02155684
86	0xbe2fe240	-0.17176151
87	0x3e29951c	0.16560787
88	0x3e3353e1	0.17512466
89	0xbb467b2b	-0.0030285816
90	0x3c970370	0.018434256
91	0xbd821058	-0.063507736
92	0xbe6145a0	-0.21999216
93	0x3c843e81	0.016143085
94	0x3dc2ea7b	0.0951738
95	0xbd242520	-0.040074468
96	0x3d7f6a94	0.0623575
97	0x3d4cf550	0.050038636
98	0x3dd084e5	0.101815976
99	0x3d56f7ac	0.052482292
100	0xbe2ac7d1	-0.16677786
101	0xbdb8c9fc	-0.090229005
102	0xbe9cd689	-0.30632427
103	0x3df7ffce	0.12109338
104	0x3db1565c	0.0865905
105	0xbe10c150	-0.14136243
106	0x3f37112f	0.71510595
107	0xbded94d8	-0.11600655
108	0xbdba02f3	-0.09082594
109	0x3db0e352	0.08637108
110	0x3dbff8ab	0.093736015
111	0xbe2f6bf8	-0.1713103
112	0x3f1a5959	0.60292584
113	0xbe272b44	-0.16325098
114	0x3d0953ec	0.0335273
115	0x3b9e94b9	0.0048395065
116	0xbd26eca3	-0.040753018
117	0x3bb4cb00	0.0055173635
118	0x3e0eecf9	0.13957585
119	0xbd89f2e1	-0.067357786
120	0xbe8e0153	-0.27735385
121	0xbd8803ab	-0.066413246
122	0x3cd8c136	0.026459318
123	0x3dc8d098	0.09805411
124	0xbd9d98f4	-0.07695189
125	0xbe4ced2f	-0.20012353
126	0x3e3bdea0	0.18346643
127	0xbe742ca4	-0.23845154
128	0xbe8acd73	-0.2710987
129	0x3c66f1a3	0.014095697
130	0x3ba78440	0.005112201
131	0x3c8c99f2	0.01716325
132	0x3c8132e2	0.015771333
133	0xbdb935c3	-0.09043457
134	0xbdaa655a	-0.083201125
135	0xbdd52aed	-0.10408578
136	0x3da53b34	0.08067933
137	0xbd957d82	-0.07299329
138	0x3dda4ee7	0.10659581
139	0xbd57688b	-0.052589934
140	0x3ce0e7a8	0.027454212
141	0x3dead397	0.11466139
142	0xbd9206fc	-0.071302384
143	0xbe04683f	-0.12930392
144	0x3b96b0a1	0.0045986925
145	0xbdca905d	-0.09890816
146	0x3d64c9dc	0.05585657
147	0x3d49fa1c	0.04931079
148	0x3db80cc8	0.08986813
149	0xbc932670	-0.017962664
150	0xbda5f5f0	-0.081035495
151	0xbdea17ea	-0.114303425
152	0xbdb5aa49	-0.0887037
153	0x3dd0b239	0.10190243
154	0xbd063544	-0.03276564
155	0xbb14e4a0	-0.002271928
156	0xbd027040	-0.03184533
157	0xbd81b348	-0.06333023
158	0x3dc9d7c0	0.09855604
159	0xbd30fa36	-0.04320737
160	0xbd7d90d5	-0.0619057
161	0x3deab458	0.11460179
162	0x3d980a7e	0.07423876
163	0x3d68be86	0.056822322
164	0x3db60994	0.08888546
165	0xbda150cc	-0.07876739
166	0x3d2572c8	0.040392667
167	0xbd1d91fa	-0.038469292
168	0x3b9147e0	0.004433617
169	0x3d6f4f94	0.0584255
170	0xbd3d284b	-0.046181004
171	0x3de4bada	0.111684516
172	0x3a1f7580	0.00060828775
173	0x3d8a60cc	0.06756744
174	0x3c3b0340	0.011414349
175	0xbdff3718	-0.1246168
176	0xbd97ed9a	-0.07418366
177	0xbdd3ac10	-0.10335553
178	0x3c6ec840	0.0145741105
179	0xbdb4c03a	-0.08825727
180	0xbdca03bb	-0.09863993
181	0x3cb08174	0.021546103
182	0xbdde5b5a	-0.10857268
183	0xbd9c14ac	-0.0762113
184	0xbdac5787	-0.08415132
185	0x3d63e7ba	0.055640914
186	0x3de8e740	0.113722324
187	0x3d31c16c	0.043397352
188	0xbd8e2b02	-0.06941797
189	0x3db5d1d9	0.08877916
190	0x3de1629d	0.11005137
191	0xbd09a6fc	-0.033606514
192	0x3db10987	0.08644395
193	0x3cd7bf82	0.026336435
194	0xbdbac6e2	-0.09119965
195	0xbd04b160	-0.03239572
196	0xbdca9789	-0.09892184
197	0x3d194a90	0.037424624
198	0x3d8c78d2	0.06858982
199	0xbdf9d9ae	-0.12199722
200	0xbd4fa464	-0.050693884
201	0x3b302840	0.002687946
202	0x3dcb681a	0.09931965
203	0xbd8a69d7	-0.067584686
204	0xbbeeb350	-0.0072845593
205	0xbb65e080	-0.003507644
206	0xbd7f7c36	-0.062374316
207	0xbd63b794	-0.055594996
208	0xbd07ef08	-0.033186942
209	0xbd17ce8c	-0.037062213
210	0xbd238752	-0.039923973
211	0x3c424a80	0.0118585825
212	0xbc29e358	-0.010369144
213	0xbd7740e8	-0.060364634
214	0x3d99d4e4	0.07511309
215	0x3db5ba0c	0.08873376
216	0xbc9f4970	-0.019444197
217	0xbcbfcf20	-0.023414195
218	0xbdf7943d	-0.12088821
219	0xbdb9b5b3	-0.090678595
220	0xbbb91cf0	-0.0056492016
221	0xbcc1b788	-0.023647085
222	0x3d14a370	0.03628868
223	0xbd7cbb0b	-0.061701816
224	0xbcd27428	-0.025690153
225	0x3c97ef18	0.018546626
226	0x3df95968	0.12175256
227	0x3dc7dbc8	0.09758717
228	0xbda718b0	-0.08159006
229	0xbc2941d8	-0.01033064
230	0xbca65a94	-0.020306863
231	0xbb81ebd0	-0.0039648786
232	0x3d53a6b4	0.051672652
233	0xbd4c6050	-0.04989654
234	0xbcd896e0	-0.02643913
235	0xbdfba2be	-0.122869
236	0xbd347a56	-0.04406198
237	0xbdf92385	-0.12164978
238	0x3d33da90	0.04390961
239	0xbdc38993	-0.095477246
240	0xbd7b0bca	-0.06129054
241	0xbdb835d0	-0.08994639
242	0x3dc12a64	0.094319135
243	0xbd15240c	-0.03641133
244	0x3ddcc04e	0.10778867
245	0xbd7c73c5	-0.061633844
246	0x3dc04f18	0.09390086
247	0xbcc7c9e8	-0.024388269
248	0xbdbed322	-0.09317614
249	0x3dd46d98	0.10372466
250	0xbdacd0c2	-0.08438255
251	0xbd9560f4	-0.07293883
252	0x3d8b349c	0.06797144
253	0xbc3db628	-0.011579074
254	0xbaf6ee80	-0.0018839389
255	0x3dfbe134	0.122988135

model.4.bias f4 [45]
0	0x3d4f8c05	0.050670642
1	0xbb1bbf68	-0.002376521
2	0xbd46ce8e	-0.04853683
3	0xbd9f9056	-0.07791202
4	0x3e4e890d	0.20169468
5	0xbcb76036	-0.022384744
6	0xbda94b8f	-0.08266365
7	0x3e412e28	0.18865263
8	0x3deeb28a	0.116551474
9	0x3e07f229	0.1327597
10	0x3e347c84	0.17625624
11	0xbdfcd6ec	-0.123456806
12	0xbe18c01d	-0.14917035
13	0x3e28e56a	0.16493765
14	0x3cac1761	0.021007242
15	0x3d3591e7	0.044328596
16	0xbcec0f21	-0.028815808
17	0xbce82660	-0.028338611
18	0xbd86f600	-0.065898895
19	0x3e18be35	0.14916308
20	0xbd738d2c	-0.059460804
21	0xbdbdaf48	-0.09261948
22	0x3d6fee87	0.058577087
23	0xbba718a0	-0.005099371
24	0xbdd270f2	-0.10275449
25	0x3d69471a	0.056952573
26	0xbe1f2a4d	-0.1554348
27	0xbc78b507	-0.015179879
28	0xbdc7af7e	-0.09750269
29	0xbcf547c8	-0.029941455
30	0x3dd4d950	0.103930116
31	0xbce86bc6	-0.028371703
32	0x3a988e76	0.0011639136
33	0xbc833795	-0.016017715
34	0x3e1ef076	0.15521416
35	0x3d87a919	0.0662405
36	0xbcd36f4d	-0.025809908
37	0xbcafc261	-0.021454992
38	0xbde2280a	-0.11042793
39	0x3d23fa4f	0.040033635
40	0xbdacb7c1	-0.08433486
41	0x3d00c0f7	0.031434026
42	0x3d3e6694	0.046484545
43	0x3df1047e	0.11768435
44	0x3e44e09d	0.19226308

model.6.weight f4 [35, 45]
0	0x3c78e090	0.015190259
1	0x3dd24142	0.10266353
2	0x3bf52720	0.0074814707
3	0x3d8dcc16	0.06923692
4	0xbdc4208b	-0.095765196
5	0x3e130953	0.14359026
6	0x3d980b8f	0.074240796
7	0xbb065afe	-0.0020501013
8	0xbd853b26	-0.06505422
9	0x3ccccdff	0.02500057
10	0xbc81433d	-0.015779132
11	0xbdc59bbc	-0.096488446
12	0xbdbd26e2	-0.09235932
13	0xbd72c2ee	-0.05926793
14	0x3d21fee1	0.039549712
15	0xbdc0ee09	-0.094204016
16	0x3dabcbf6	0.08388512
17	0xbda824d2	-0.08210148
18	0x3db78d2e	0.08962475
19	0x3bdb897a	0.006699738
20	0x39867000	0.00025641918
21	0x3ca4eb90	0.020131856
22	0x3aa5ab09	0.0012639473
23	0x3d96e52c	0.0736793
24	0xbc435290	-0.01192154
25	0xbd5243fb	-0.051334362
26	0x3c7e9dd0	0.015540555
27	0xbdb20e85	-0.08694176
28	0x3d74672c	0.059668705
29	0x3c75ade0	0.014995068
30	0x3d9ed169	0.077547856
31	0xbcca59c4	-0.024701007
32	0xbbda1f10	-0.006656535
33	0xbd90b0b8	-0.070649564
34	0xbd890e12	-0.06692137
35	0xbb139f73	-0.002252546
36	0x3da2ed03	0.07955363
37	0xbd634325	-0.055483956
38	0x3defede6	0.117152974
39	0xbd4e261c	-0.050329313
40	0xbccf65a1	-0.025317015
41	0x3df913ce	0.121619806
42	0xbce9da2e	-0.028546419
43	0x3da76306	0.08173184
44	0xbc51cacc	-0.012804698
45	0x3dc7640c	0.09735879
46	0x3bc9bfa6	0.0061568795
47	0xbd8fdc3f	-0.070244305
48	0xbdc91c24	-0.098198205
49	0x3ea2b059	0.31775168
50	0x3d160ca8	0.036633164
51	0xbcb9e290	-0.022691041
52	0x3e496aa6	0.1966959
53	0xbd969748	-0.07353073
54	0x3e070d8d	0.13188763
55	0x3e84539c	0.2584504
56	0xbe01cb4f	-0.12675212
57	0x3bf02ccf	0.0073295604
58	0x3ea6f687	0.3260996
59	0x3e7ce4f4	0.24696714
60	0x3dc4c3be	0.09607647
61	0x3d5e98fc	0.054345116
62	0xbdaac487	-0.08338266
63	0x3d9ba1a0	0.07599187
64	0x3ea190a5	0.31555668
65	0x3d79eae8	0.06101504
66	0x3dd4a68e	0.1038333
67	0xbde07d84	-0.1096144
68	0xbe04d493	-0.12971716
69	0xbd95731e	-0.072973475
70	0x3d06c616	0.032903753
71	0x3dc4bddd	0.09606526
72	0xbd31264c	-0.043249413
73	0xbd8725af	-0.065989845
74	0x3dc4e7b4	0.09614506
75	0x3e5a3005	0.2130738
76	0x3c38122c	0.011234801
77	0xbe0fc9a5	-0.14041765
78	0x3cbbad51	0.022909792
79	0x3e977849	0.29583958
80	0x3e87d951	0.26532987
81	0x3d3ce0fc	0.046113
82	0x3dd8bd5b	0.10582992
83	0x3ca9bf38	0.020721063
84	0xbe0d86ff	-0.13821028
85	0xbbde0486	-0.0067754416
86	0xbd1268c8	-0.03574446
87	0xbc7e87b2	-0.015535282
88	0xbd7c7d2e	-0.06164282
89	0x3ea9c143	0.3315526
90	0xbd99153c	-0.07474753
91	0xbdc02316	-0.09381692
92	0xbd3d984c	-0.04628782
93	0x3dffc836	0.12489359
94	0x3e3472db	0.17621939
95	0x3d792960	0.060830474
96	0x3dbbc350	0.09168112
97	0x3ec8a75f	0.39190194
98	0xbcca0d06	-0.024664413
99	0x3e8deae1	0.2771826
100	0x3e119606	0.14217386
101	0xbc39a5f0	-0.0113310665
102	0xbdfc1e21	-0.12310434
103	0x3db57839	0.08860821
104	0x3e6c7dec	0.2309491
105	0xbd91bd57	-0.07116192
106	0x3e2de584	0.16982085
107	0x3de1a5f6	0.11017983
108	0x3d563f94	0.052306727
109	0x3e7aea6a	0.24503484
110	0xbe0ab079	-0.13543881
111	0xbd8d2e50	-0.06893599
112	0xbdac79b2	-0.08421649
113	0xbe10bea1	-0.14135219
114	0x3ce95a8b	0.028485557
115	0x3d2db9fb	0.042413693
116	0x3e93e791	0.2888761
117	0xbc3192f2	-0.010838257
118	0xbdca2322	-0.09869982
119	0xbe03675c	-0.12832397
120	0x3e6473e0	0.22309828
121	0xbd112ba4	-0.03544201
122	0x3d87acee	0.066247806
123	0x3e5bdf35	0.21471865
124	0x3eaa5090	0.3326459
125	0x3de85170	0.11343658
126	0xbb62f6b4	-0.003463191
127	0xbd0e83e1	-0.03479374
128	0x3dc1e250	0.09466994
129	0xbca8850b	-0.020571252
130	0x3c0c9ee2	0.0085828025
131	0xbdd8d445	-0.10587362
132	0x3e002728	0.12514937
133	0x3daa1491	0.08304704
134	0x3e5f0735	0.21780093
135	0xbccfadfd	-0.025351519
136	0xbd8b92f8	-0.068151414
137	0x3a9f9680	0.001217559
138	0x3bf2abe0	0.007405743
139	0x3e2e5f05	0.17028435
140	0xbbcf07a0	-0.0063180476
141	0x3e3d644b	0.1849529
142	0x3e8a6f22	0.27037913
143	0x3c26f443	0.0101900725
144	0x3ca76f97	0.020438952
145	0x3d820332	0.06348266
146	0x3d41a06d	0.047272135
147	0xbda5aede	-0.08089994
148	0x3e3636b5	0.17794307
149	0x3e2ae49f	0.16688775
150	0xbdbc504c	-0.09195003
151	0x3d83a261	0.06427456
152	0xbc9df160	-0.019280136
153	0x3de36516	0.11103265
154	0x3da3ec8e	0.080041036
155	0x3e053745	0.13009365
156	0x3ded3761	0.11582828
157	0xbd861258	-0.065464675
158	0x3ccce940	0.025013566
159	0xbda82591	-0.0821029
160	0x3dc19c61	0.09453655
161	0x3e25db38	0.16196907
162	0xbb8bb329	-0.004263301
163	0x3db8a168	0.09015161
164	0xbdf52347	-0.11969619
165	0x3db1e329	0.086859055
166	0x3cfec5a5	0.031100104
167	0xbe0ea668	-0.13930666
168	0x3e3e4d9f	0.18584298
169	0x3e17cd0d	0.14824314
170	0x3e6b6dc0	0.22991085
171	0xbc01bfec	-0.007919293
172	0x3c223577	0.009900442
173	0xbd286790	-0.04111439
174	0xbe1c81dd	-0.15283914
175	0xbd66bfbc	-0.056335196
176	0x3dc77bdb	0.097404204
177	0x3e05df8d	0.13073559
178	0x3bdd32f7	0.0067504602
179	0x3e5f5b97	0.21812283
180	0x3e38dfd2	0.1805413
181	0x3e6b2941	0.22964956
182	0xbdd9c4db	-0.1063325
183	0x3d192ce8	0.03739634
184	0xbd428b85	-0.047496337
185	0x3d66597a	0.056237675
186	0xbda5a4c9	-0.08088071
187	0xbc779da7	-0.015113271
188	0x3d70c373	0.058780145
189	0xbe0eee8d	-0.13958187
190	0xbe112de8	-0.14177668
191	0x3e17a4d8	0.14808977
192	0x3c232e21	0.009959728
193	0xbe090285	-0.13379867
194	0x3dbd34a1	0.09238554
195	0x3e08537e	0.133131
196	0x3e6aaf7e	0.22918507
197	0x3e0fdd49	0.14049257
198	0xbd1cf130	-0.03831595
199	0xbd982589	-0.07429034
200	0xbdaef559	-0.0854289
201	0xbc975685	-0.018473873
202	0x3d376873	0.044777345
203	0x3e0996d9	0.1343645
204	0xbc83c6ed	-0.016086066
205	0x3e5d80e4	0.21631199
206	0x3e09503a	0.1340951
207	0x3e30c9d1	0.17264487
208	0x3d94e74e	0.0727068
209	0x3e014349	0.12623324
210	0x3da97031	0.08273352
211	0x3e4aa17c	0.19788164
212	0x3bd8564b	0.006602084
213	0x3db6e6bc	0.08930728
214	0xbc1c5ea3	-0.0095440475
215	0x3e17b5d9	0.14815463
216	0x3e2c9ce3	0.16856723
217	0x3e8586ee	0.26079506
218	0x3dec24b2	0.115304366
219	0x3d83d666	0.06437378
220	0x3ce76394	0.028245725
221	0x3e8f8600	0.2803192
222	0x3e309a98	0.17246473
223	0x3e553142	0.20819572
224	0x3d5fdf34	0.054656222
225	0xbd3fac4c	-0.046795174
226	0x3d11ce6c	0.03559725
227	0xbdd2f29c	-0.1030018
228	0x3e0cd3f1	0.13752724
229	0x3c0bbec0	0.008529365
230	0x3dec9552	0.11551918
231	0xbdd69d00	-0.10479164
232	0xbe0c3b6e	-0.13694546
233	0x3c923830	0.017849058
234	0xbc9c7578	-0.019098982
235	0xbd76fc32	-0.060299106
236	0x3d9ff612	0.07810606
237	0xbdc69a1f	-0.09697365
238	0x3e05c3a3	0.1306291
239	0xbe15048f	-0.1455252
240	0x3cfa7160	0.03057164
241	0xbdb281d5	-0.0871617
242	0x3d047698	0.032339662
243	0x3e16c0b5	0.1472195
244	0xbc9293c0	-0.017892718
245	0x3d0df96c	0.034661695
246	0xbd704b08	-0.058665305
247	0xbd9ca985	-0.07649521
248	0xbe026499	-0.12733687
249	0x3db037ca	0.08604391
250	0xbad8ff80	-0.0016555637
251	0x3d537248	0.05162266
252	0xbdeacd78	-0.11464971
253	0xbdfe2df4	-0.124111086
254	0xbe0acd3a	-0.1355485
255	0xbdaff03e	-0.085907444

model.6.bias f4 [35]
0	0xbb842b4e	-0.0040334826
1	0x3cc8ccfa	0.024511803
2	0xbec049fe	-0.37556452
3	0xbeb8e340	-0.36110878
4	0x3dd86e8d	0.10567961
5	0xbe18a5f3	-0.14907055
6	0x3e66119b	0.22467653
7	0x3d35e88d	0.04441123
8	0x3d0548d7	0.03254017
9	0x3e6c782d	0.23092718
10	0x3e076e01	0.13225557
11	0x3d81762d	0.06321368
12	0xbe143366	-0.14472732
13	0xbdb567df	-0.088577025
14	0xbdf512a5	-0.11966447
15	0xbed8445e	-0.4223966
16	0xbe2c1b95	-0.16807397
17	0x3d8d9a71	0.06914223
18	0x3d9f7544	0.077860385
19	0x3dee7e6d	0.116452076
20	0xbe1a7cb6	-0.15086636
21	0x3e207550	0.15669751
22	0xbe0d1787	-0.13778506
23	0x3c9d9d54	0.019240059
24	0xbd99c280	-0.07507801
25	0x3e4da109	0.20080961
26	0xbdc40ab0	-0.09572351
27	0x3e74e50d	0.23915501
28	0xbe107c4e	-0.14109918
29	0xbdc9eeb0	-0.09859979
30	0xbe127ea0	-0.14306116
31	0xbdf0b85b	-0.11753913
32	0xbcd05fc9	-0.025436299
33	0xbdda3740	-0.10655069
34	0xbc80b9f0	-0.015713662

model.8.weight f4 [25, 35]
0	0xbc85cb19	-0.016332196
1	0xbd1b5d0d	-0.037930537
2	0x3db98f9e	0.09060596
3	0xbcc10bd8	-0.023565218
4	0x3e83869c	0.25688636
5	0xbd456e0a	-0.048200645
6	0xbda40325	-0.08008412
7	0x3de9facb	0.11424788
8	0x3e39f335	0.18159182
9	0xbd19d22e	-0.03755396
10	0xbe260a5c	-0.1621489
11	0x3db3c506	0.087778136
12	0xbddbd477	-0.10733884
13	0x3e293a82	0.16526225
14	0xbd2b5e50	-0.04183799
15	0x3e43dcde	0.19127223
16	0x3db2ecf4	0.087366015
17	0xbacab3c1	-0.0015464948
18	0x3cc84130	0.024445146
19	0x3d651771	0.05593056
20	0x3e92220e	0.28541607
21	0x3e47944e	0.19490167
22	0x3d61f6ba	0.055166937
23	0x3e7cdd8b	0.24693887
24	0xbdbf13a3	-0.09329917
25	0x3e98b122	0.29822642
26	0xbe0a8142	-0.1352587
27	0xbe2da4fd	-0.1695747
28	0x3ea94c4c	0.33066022
29	0x3dbd1d84	0.09234145
30	0x3e2f0211	0.17090632
31	0xbdee3e9e	-0.11633037
32	0x3e8a5341	0.27016643
33	0xbd8c728d	-0.06857786
34	0x3d41c77c	0.047309384
35	0x3cf1bca8	0.029508904
36	0x3e87688e	0.26446956
37	0x3bf1eb48	0.007382784
38	0x3e4a148c	0.197344
39	0xbda955c7	-0.08268314
40	0xbd9cd59a	-0.07657929
41	0x3ec4947e	0.3839454
42	0xbde29dcb	-0.11065253
43	0x3d2859ec	0.04110138
44	0x3e5fb8a3	0.21847777
45	0x3e8d788b	0.2763103
46	0xbcd2abe1	-0.025716724
47	0xbe07d082	-0.13263133
48	0x3e1246e0	0.14284849
49	0xbe04d7f3	-0.12973003
50	0x3e40e884	0.18838698
51	0x3d849258	0.06473225
52	0x3dd3b3b3	0.10337009
53	0x3e60900b	0.21929948
54	0x3e51b0f0	0.20477653
55	0xbdf708f3	-0.12062254
56	0x3e745a52	0.2386258
57	0xbdaf328c	-0.08554563
58	0xbab66e92	-0.001391845
59	0xbdb96f72	-0.0905446
60	0x3d5e3c22	0.054256566
61	0xbde81210	-0.1133157
62	0x3eac7f67	0.3369095
63	0xbc94e5b3	-0.018175935
64	0x3e2185fa	0.15773764
65	0x3d1ee37c	0.038791165
66	0xbcdeea68	-0.027211383
67	0xbde4b5b0	-0.11167467
68	0x3dd9529c	0.106114596
69	0xba8e3e80	-0.0010852367
70	0xbe09a1fa	-0.13440695
71	0x3e64ffe7	0.22363244
72	0x3e2f10cd	0.17096253
73	0xbc943fad	-0.01809677
74	0xbdd02bb6	-0.10164587
75	0xbd0ba4a0	-0.034092546
76	0x3e7fff08	0.2499963
77	0x3d7851ca	0.060624875
78	0xbd22f5de	-0.03978526
79	0xbbfac2fc	-0.0076526385
80	0x3e9fe884	0.31232083
81	0x3d567eb2	0.05236692
82	0x3da8e374	0.08246508
83	0xbe231eb7	-0.15929686
84	0x3da368b4	0.07978955
85	0x3e1cfb15	0.15330155
86	0x3c59bcf6	0.013289681
87	0x3e9d2078	0.30688834
88	0x3e540702	0.20705798
89	0x3e425232	0.18976668
90	0x3d33ff42	0.043944605
91	0x3c0f38c3	0.00874156
92	0xbd06ab99	-0.032878492
93	0xbd01f96c	-0.031732008
94	0x3d32a61c	0.043615445
95	0x3cb1c763	0.02170152
96	0xbda193e6	-0.078895375
97	0x3e733c4f	0.23753475
98	0xbdf2fe83	-0.118649505
99	0x3dda5bf4	0.1066207
100	0x3bb4b521	0.0055147563
101	0xbc313d20	-0.010817796
102	0xbc498bc8	-0.012301393
103	0x3d179380	0.0370059
104	0x3be82d80	0.007085502
105	0x3e17080e	0.14749166
106	0x3e1cba07	0.15305339
107	0x3e094998	0.1340698
108	0x3e22b699	0.15889968
109	0x3e5282b0	0.20557666
110	0xbd862547	-0.06550079
111	0xbdc6e92e	-0.09712444
112	0x3e9fdebb	0.31224617
113	0x3dd44ea9	0.10366566
114	0xbe16ce61	-0.14727165
115	0x39e52626	0.00043706706
116	0x3de0d67c	0.1097841
117	0xbdebb80e	-0.11509715
118	0xbe034695	-0.12819894
119	0xba03d1c5	-0.00050285115
120	0x3e7cb853	0.24679689
121	0x3e898c40	0.26864815
122	0xbdec4bfb	-0.115379296
123	0xbe25a70b	-0.16177003
124	0xbdcaab7c	-0.09895989
125	0x3e519ee7	0.20470773
126	0x3debabe5	0.11507396
127	0x3e8ef7c7	0.27923414
128	0x3d6fe916	0.058571897
129	0x3e2d6580	0.1693325
130	0x3e21e0a2	0.15808347
131	0xbe18954b	-0.14900701
132	0xbde8df20	-0.11370683
133	0x3e79aa53	0.2438138
134	0xbd0f6f84	-0.03501846
135	0x3ea9829b	0.33107457
136	0x3c5cff60	0.0134886205
137	0x3ea04f35	0.3131043
138	0x3e0f8140	0.14014149
139	0xbd839000	-0.0642395
140	0x3c837462	0.016046707
141	0xbd39f06e	-0.045395307
142	0xbe3fad7b	-0.18718521
143	0xbe4c312f	-0.19940637
144	0x3dcdfa1d	0.10057471
145	0x3db0d33c	0.0863404
146	0xbd85bd6f	-0.06530272
147	0x3d253619	0.040334795
148	0x3de0ad60	0.10970569
149	0x3d6baafd	0.057536114
150	0xbc83d2bf	-0.016091703
151	0x3eb9092b	0.36139807
152	0xbdfa9136	-0.12234728
153	0xbd8892f1	-0.06668652
154	0x3be9f8d9	0.0071402607
155	0x3c0ad647	0.008473939
156	0x3e50e7c8	0.20400918
157	0xbdc496ed	-0.09599099
158	0x3df420d5	0.11920325
159	0xbdcca67b	-0.09992691
160	0x3d1470e5	0.036240477
161	0x3e4440b3	0.19165306
162	0x3eafb0b5	0.34314504
163	0x3ea660d2	0.32495743
164	0xbdec58ab	-0.115403496
165	0x3e4deeaf	0.20110582
166	0x3dbf2833	0.09333839
167	0x3dfaebec	0.1225203
168	0x3e9cd547	0.30631468
169	0xbe140232	-0.14453962
170	0x3df57fc6	0.119872615
171	0x3b92f7e1	0.004485116
172	0x3e8f39c1	0.2797375
173	0xbdefb15b	-0.1170375
174	0x3d88d2c0	0.06680822
175	0xbd220da8	-0.039563805
176	0x3d55df94	0.052215174
177	0xbcdcf728	-0.026973322
178	0x3e277dfa	0.1635665
179	0xbd0ba058	-0.034088463
180	0xbd85917b	-0.06521889
181	0xbce0e400	-0.027452469
182	0xbdcc4ad1	-0.099752076
183	0xbe1fc79f	-0.15603493
184	0x3ddf96bc	0.10917422
185	0xbdd1f500	-0.10251808
186	0xbdb859bb	-0.0900149
187	0xbdb2770a	-0.08714111
188	0xbae22a80	-0.0017255098
189	0x3dc27c70	0.09496391
190	0xbd7df270	-0.061998785
191	0xbc7ba4c3	-0.0153591065
192	0xbd9957a1	-0.07487417
193	0x3e077e0e	0.1323168
194	0xbd2950b9	-0.04133675
195	0x3dd5bb21	0.10436083
196	0xbd7f253f	-0.06229138
197	0xbd83b34c	-0.064306825
198	0xbde07938	-0.10960621
199	0xbde77daa	-0.113032654
200	0x3d9ac0ff	0.07556342
201	0xbe231aef	-0.15928243
202	0x3d09e8d8	0.033669323
203	0x3dfee040	0.12445116
204	0xbe008ba2	-0.12553266
205	0x3d59c861	0.05316961
206	0x3d0ced64	0.03440608
207	0xb9845caa	-0.00025246042
208	0x3e2460d2	0.16052559
209	0xbdedf5f4	-0.116191775
210	0x3dcb68d8	0.09932107
211	0xbdabc8ed	-0.08387933
212	0x3dcdfd34	0.1005806
213	0x3c5a4e90	0.013324395
214	0x3c497df0	0.012298092
215	0xbe13621c	-0.14392895
216	0x3c9dda10	0.01926902
217	0xbdfe467c	-0.124157876
218	0xbe0fd34b	-0.14045446
219	0x3dc1cdb4	0.09463063
220	0x3ac55a00	0.0015056729
221	0xbd31e674	-0.043432668
222	0xbcdc3868	-0.026882365
223	0x3e095fe4	0.13415486
224	0xbb470b00	-0.0030371547
225	0xbddd9730	-0.10819852
226	0x3e273d18	0.16331899
227	0xbdc0603c	-0.09393355
228	0x3dfa87e0	0.12232947
229	0x3e1069f4	0.14102918
230	0x3cfd0dc8	0.03089036
231	0xbe1cbc30	-0.15306163
232	0xbd4c8072	-0.049927182
233	0xbe105743	-0.14095788
234	0xbe17ba37	-0.14817129
235	0xbdffd150	-0.12491095
236	0xbdb7cc91	-0.08974565
237	0xbe1fbc2f	-0.1559913
238	0xbdbe1872	-0.09282006
239	0xbe08beb2	-0.13353994
240	0xbe0659f8	-0.13120258
241	0xbde2ca46	-0.11073737
242	0xbe2694dc	-0.16267723
243	0x3b46de00	0.0030344725
244	0x3c6dfe80	0.01452601
245	0xbd050f70	-0.032485425
246	0x3eb72f88	0.3577845
247	0x3e2b637d	0.1673717
248	0x3e773828	0.24142516
249	0x3dafde8a	0.08587368
250	0xbdb6cc1e	-0.08925651
251	0x3e6bc8ce	0.2302582
252	0x3d4245c5	0.04742982
253	0xbd8f52c6	-0.0699821
254	0x3e7603c9	0.24024881
255	0x3ddd463e	0.10804413

model.8.bias f4 [25]
0	0x3da8cddc	0.082423896
1	0x3e53aa63	0.20670466
2	0xbb0192cf	-0.0019771343
3	0x3c56e710	0.013116613
4	0x3eba0a36	0.36335915
5	0xbdc33181	-0.095309265
6	0xbd4fc2d2	-0.050722905
7	0xbef7476f	-0.48296687
8	0xbeeb0d83	-0.45908746
9	0xbd2bc59a	-0.041936494
10	0xbe2b41a7	-0.16724263
11	0x3dd951c3	0.10611298
12	0xbcf30452	-0.029665146
13	0xbe12f9d9	-0.14353122
14	0x3e73985c	0.23788589
15	0xbdc9ff91	-0.098631985
16	0x3e0743f4	0.13209516
17	0x3e195482	0.14973643
18	0xbdabf070	-0.08395469
19	0x3eb9e02d	0.36303845
20	0xbf2bb993	-0.6708004
21	0xbe296476	-0.16542229
22	0xbede5098	-0.43420863
23	0xbef55082	-0.47912985
24	0x3d1a05d8	0.03760323

model.10.weight f4 [15, 25]
0	0xbd75780b	-0.059928935
1	0x3e72c4e5	0.23707922
2	0x3e871fda	0.26391488
3	0x3de9dfc8	0.11419636
4	0x3dd4ef89	0.1039725
5	0x3bcdbf40	0.0062789023
6	0xbc1dc650	-0.009629801
7	0x3e4bbd3d	0.19896407
8	0x3d9d7d39	0.076899
9	0x3e2f2be2	0.17106584
10	0x3c0618d0	0.008184627
11	0xbe695da1	-0.22789623
12	0xbe0c08c0	-0.13675213
13	0x3e02122c	0.12702245
14	0x3e830c22	0.25595194
15	0x3c9b909e	0.018989857
16	0x3e846fce	0.2586655
17	0x3e4a2c23	0.197434
18	0xbdd6ca3c	-0.10487792
19	0x3d851cad	0.0649961
20	0x3d692ea3	0.056929242
21	0xbcc790f0	-0.024361104
22	0xbe517398	-0.20454252
23	0xbdb96a2b	-0.09053453
24	0x3db3ebf2	0.08785237
25	0xbd09a465	-0.033604044
26	0xbeecbb80	-0.462368
27	0xbf40a689	-0.7525411
28	0xbd0ced14	-0.034405783
29	0x3e0256e0	0.12728453
30	0xbe119650	-0.14217496
31	0x3db6c896	0.089249775
32	0xbde620be	-0.11236714
33	0xbe06c147	-0.13159667
34	0xbdd9f11b	-0.1064169
35	0x3da41956	0.08012645
36	0x3dfde06f	0.12396323
37	0x3e18c661	0.14919426
38	0x3dffe0b2	0.12494029
39	0xbf2da647	-0.67831844
40	0x3e633881	0.22189523
41	0xbecf833e	-0.40529817
42	0xbd8ae2d0	-0.06781542
43	0x3dcfc72a	0.101454094
44	0x3de0c712	0.1097547
45	0xbe59a477	-0.21254145
46	0xbd31217f	-0.043244835
47	0x3e8f2ab4	0.27962267
48	0xbe954e5c	-0.29161346
49	0x3db43446	0.08799033
50	0x3e8e9461	0.2784758
51	0xbdb6d397	-0.08927076
52	0xbdaef821	-0.085434206
53	0x3df5ba71	0.119984515
54	0x3e1c7aab	0.15281169
55	0xbc6feba5	-0.014643584
56	0xbe35c94f	-0.17752574
57	0xba93a9b0	-0.0011265781
58	0xbce67eb3	-0.028136587
59	0x3e07642a	0.13221803
60	0x3d818e80	0.06326008
61	0x3e60f82e	0.21969673
62	0xbd895a1f	-0.06706642
63	0x39573b70	0.0002052614
64	0xbcfafba7	-0.030637575
65	0x3e6d2cc6	0.23161611
66	0x3d17cf61	0.037063006
67	0x3e3105d2	0.17287377
68	0x3d967e90	0.07348359
69	0x3daedca4	0.085381776
70	0xbd98e6db	-0.07465907
71	0x3e4bb41c	0.19892925
72	0x3de8729f	0.11349987
73	0x3c9a0189	0.01879956
74	0xbe2d8b0d	-0.16947575
75	0xbcb5ddd8	-0.02220051
76	0xbd8ac276	-0.06775372
77	0xbcf650e8	-0.030067876
78	0x3e11d371	0.14240815
79	0xbe07365d	-0.13204332
80	0xbdd5843d	-0.10425613
81	0xbda61e20	-0.08111215
82	0x3c66e1d0	0.014091924
83	0xbde395d7	-0.11112564
84	0x3d23b554	0.03996785
85	0xbe2d90ba	-0.1694974
86	0xbdd1a340	-0.102362156
87	0x3df4a042	0.11944629
88	0x3e0d3801	0.13790895
89	0xbd8001ac	-0.06250319
90	0x3c2f2830	0.010690734
91	0xbbdee740	-0.0068024695
92	0xbe10fd3b	-0.141591
93	0xbd37b268	-0.044847876
94	0x3df1d00a	0.118072584
95	0x3bdc2ea0	0.0067194253
96	0x3e447003	0.19183354
97	0xbe274dd6	-0.16338286
98	0xbe112ae2	-0.14176515
99	0xbe2e99c0	-0.17050838
100	0xbec42c60	-0.38315105
101	0x3e1913df	0.14948986
102	0x3e8327c8	0.25616288
103	0xbec46ab7	-0.38362667
104	0xbe86b8ec	-0.2631296
105	0xbdab30da	-0.08358927
106	0x3df2f7be	0.11863659
107	0x3e1ba1a9	0.15198387
108	0x3dd82b28	0.105551064
109	0x3e3acfcd	0.18243332
110	0x3d3ea5c7	0.046544816
111	0xbb7ad13e	-0.003827169
112	0xbc13e94f	-0.009027793
113	0xbe21ba76	-0.15793785
114	0x3df72201	0.120670326
115	0xbe3fded9	-0.18737353
116	0x3e23e408	0.16004956
117	0xbc81a73a	-0.01582681
118	0xbd7dddb2	-0.061979003
119	0x3eda7a24	0.4267131
120	0x3d80c17d	0.06286905
121	0x3cbdfa1a	0.023190547
122	0xbe37f78e	-0.17965528
123	0x3d0695cf	0.032857712
124	0x3ddcd6c2	0.10783149
125	0x3d7a66d4	0.06113322
126	0x3de533be	0.1119151
127	0xbe086570	-0.13319945
128	0xbd711d8c	-0.05886607
129	0xbdd40e17	-0.1035425
130	0xbe1f50da	-0.15558186
131	0xbda829ed	-0.08211122
132	0xbc519b30	-0.012793347
133	0xbc700e30	-0.01465182
134	0xbc4a7a20	-0.012358218
135	0xbe015d7e	-0.1263332
136	0xbc5e5000	-0.013568878
137	0x3d59389c	0.053032503
138	0x3e1316bf	0.14364146
139	0x3df7cd2e	0.12099682
140	0xbe2b2760	-0.16714239
141	0xbe02793d	-0.12741561
142	0x3e218bf9	0.15776052
143	0x3e0b059b	0.13576357
144	0x3de35e02	0.11101915
145	0xbdd34120	-0.10315156
146	0x3e2cb5f9	0.16866292
147	0xbe46f823	-0.19430594
148	0xbe22df56	-0.15905508
149	0x3c92a318	0.017900035
150	0x3e40f76d	0.18844385
151	0xbe976f68	-0.29577184
152	0xbda2e4e5	-0.079538144
153	0x3db80352	0.08985008
154	0x3cf650b8	0.030067787
155	0xbe12e479	-0.14344968
156	0xbdc45b7d	-0.095877625
157	0x3d11019b	0.03540192
158	0x3d4e03fe	0.050296776
159	0x3e008884	0.12552077
160	0xbd23ddcb	-0.04000644
161	0x3e9fbac1	0.3119717
162	0x3dadfe08	0.08495718
163	0xbe0b24bd	-0.13588233
164	0xbeb0ef2a	-0.34557468
165	0x3e6a0b17	0.22855793
166	0xbdc3873e	-0.0954728
167	0xbcc51cc4	-0.024061568
168	0xbc332eb1	-0.010936425
169	0x3dacabd9	0.08431215
170	0xbd887bcd	-0.06664238
171	0xbde25f7b	-0.11053368
172	0x3e18f830	0.14938426
173	0xbe181d0c	-0.1485483
174	0x3debd80a	0.115158156
175	0xbe0cd678	-0.13753688
176	0xbd24af14	-0.04020603
177	0xbde0735a	-0.109595016
178	0x3c0b7960	0.008512825
179	0xbcc1c418	-0.023653075
180	0x3d746664	0.05966796
181	0xbe1eda63	-0.15512995
182	0xbe34a1c7	-0.17639838
183	0x3e22e089	0.15905966
184	0xbe1ccf9e	-0.15313575
185	0x3d8a1d96	0.06743924
186	0xbe31dd80	-0.17369652
187	0x3d1fa320	0.038973927
188	0xbb8b70a0	-0.0042553693
189	0xbdc96b80	-0.09834957
190	0xbb86f3c0	-0.0041184127
191	0x3cc92818	0.024555251
192	0x3bb76500	0.005596757
193	0x3e1af013	0.15130644
194	0xbdea9dfa	-0.11455913
195	0x3db97a22	0.09056498
196	0x3e3c9f35	0.18420108
197	0xbe131a0e	-0.14365408
198	0xbe2068ea	-0.15665022
199	0x3d8a6f5a	0.0675952
200	0xbd189a17	-0.037256327
201	0x3e1ca635	0.15297778
202	0x3cd27367	0.025689794
203	0x3e1986ac	0.1499278
204	0x3db427bd	0.08796642
205	0x39b17999	0.00033850668
206	0xbd8e6186	-0.06952195
207	0x3e3a06c9	0.18166651
208	0x3e11d7da	0.14242497
209	0xbda37c26	-0.07982664
210	0x3cc93d87	0.024565471
211	0xbdc92ee5	-0.098233975
212	0x3d84a5bf	0.06476926
213	0xbe26dcb3	-0.16295128
214	0x3e3e8b0b	0.18607728
215	0xbdf7b87c	-0.120957345
216	0x3e87f418	0.26553416
217	0xbdf96856	-0.121781036
218	0x3e349e22	0.17638448
219	0xbecf656b	-0.40507063
220	0x3e4d9d87	0.20079623
221	0xbe206902	-0.15665057
222	0xbe7e43ba	-0.24830523
223	0x3ddb348e	0.107033834
224	0xbde10f0d	-0.10989199
225	0xbda5e596	-0.08100431
226	0x3e945fbb	0.28979287
227	0x3e843f4c	0.25829542
228	0xbd8f1631	-0.069866545
229	0x3e4d26b2	0.20034292
230	0xbe092da5	-0.13396318
231	0xbdee03a0	-0.11621785
232	0x3df0d870	0.11760032
233	0x3dfca879	0.12336821
234	0xbd6cdce8	-0.05782786
235	0xbe210aff	-0.15726851
236	0x3d9b4a58	0.07582539
237	0x3e3bb0fa	0.1832923
238	0x3e2d4591	0.16921069
239	0x3ea75bca	0.32687217
240	0xbe1c6cdb	-0.152759
241	0x3e8c195d	0.273631
242	0x3cf65b4e	0.030072834
243	0xbdd534fa	-0.10410495
244	0x3f4dc8fb	0.80384797
245	0xbe4444eb	-0.19166915
246	0x3cd3b3fa	0.025842655
247	0xbd80f449	-0.06296594
248	0xbd554b92	-0.052074023
249	0x3c1f71b0	0.009731695
250	0x3e583ad1	0.21116187
251	0xbd800360	-0.06250644
252	0xbeafa624	-0.34306443
253	0x3e2dc9d0	0.16971517
254	0x3df9ea86	0.12202935
255	0xbdf525ba	-0.119700864

model.10.bias f4 [15]
0	0xbdf06560	-0.11738086
1	0xbd18ffd9	-0.03735337
2	0x3f7a59ea	0.9779345
3	0xbdf3f4bd	-0.119119145
4	0xbe00b3e0	-0.12568617
5	0xbdf2c753	-0.11854424
6	0xbe48c3f8	-0.19606006
7	0xba659d00	-0.00087590516
8	0x3f30f712	0.69127
9	0x3f2b3019	0.66870266
10	0x3e9a47f4	0.3013302
11	0x3f011eba	0.5043751
12	0xbf690e26	-0.91037214
13	0xbe6b839f	-0.22999428
14	0xbf0ba0c0	-0.5454216
